checkpoints/single-phase/13bus/centralized/policy_net_checkpoint_linear.pth (torch, 174285 bytes, 7 tensors)

controller.W.0 f4 [200, 5]
0	0xbf262a30	-0.64908123
1	0x3f20bc94	0.6278775
2	0x3fc82636	1.5636661
3	0xbfa559e3	-1.2918056
4	0xbf9494ae	-1.1607873
5	0xbcb5e9c0	-0.022206187
6	0xbf818be0	-1.0120811
7	0x3f191002	0.5979005
8	0x3f84e848	1.0383387
9	0xbf898f0f	-1.0746783
10	0xbfea5880	-1.8308258
11	0xbede5e75	-0.4343144
12	0x3fbc0dfd	1.4691769
13	0x3e024f40	0.12725544
14	0x3f26374e	0.6492814
15	0xbf0fff76	-0.5624918
16	0xbf0af19c	-0.54274917
17	0xbebdd4a7	-0.37076303
18	0x3fab489c	1.3381534
19	0xbf8c9673	-1.0983413
20	0x3f7bd4a7	0.98371357
21	0xbdca5e4a	-0.098812655
22	0xbe7d0329	-0.24708237
23	0x3f40e85d	0.7535456
24	0x3f82d85c	1.0222278
25	0xbf2af9e3	-0.66787547
26	0xbd96ff16	-0.073728725
27	0x3fa21445	1.2662436
28	0x3eaa0ed6	0.33214444
29	0xbfbddd02	-1.4833071
30	0xbfbe7ff0	-1.4882793
31	0xbf783d35	-0.96968395
32	0xbd861887	-0.06547647
33	0x3f032f76	0.51244295
34	0x3f6ddfa1	0.92919356
35	0xbf24360f	-0.64144987
36	0xbe08eaa4	-0.13370758
37	0xbf19c0cd	-0.60059816
38	0x3f4cb9b3	0.79970855
39	0xbf859bc9	-1.0438167
40	0x3f8423ee	1.0323465
41	0xbfa40b1c	-1.281589
42	0x3f18a178	0.5962138
43	0xbeb5d274	-0.35512125
44	0x3f0741aa	0.5283457
45	0x3f1eaefa	0.61985743
46	0x3f64b030	0.8933134
47	0xbedbdaca	-0.4294036
48	0xbf37ea3f	-0.71841806
49	0x3f33fe39	0.7030979
50	0x3eb5fd62	0.35544878
51	0x3e2f646f	0.17128156
52	0xbf4415df	-0.7659587
53	0x3f96a1f5	1.1768175
54	0x3ef1f0ef	0.4725413
55	0x3eedfc62	0.46481615
56	0xbf9c4024	-1.2207074
57	0x3f86cbe0	1.0530968
58	0xbfd6332f	-1.673437
59	0x3f6c31d7	0.9226355
60	0xbfa0f1b9	-1.2573768
61	0x3ec50ce8	0.3848641
62	0x3d10adc3	0.035321962
63	0x3ec31e8e	0.3810925
64	0xbfbdb72c	-1.4821525
65	0xbfb54e3b	-1.4164499
66	0xbf07c398	-0.5303283
67	0xbc2e02af	-0.010620757
68	0x3f36d880	0.714241
69	0x3f81b429	1.0133106
70	0x3f4762de	0.77885234
71	0xbf76b048	-0.96362734
72	0xbfb395ac	-1.4030051
73	0x3e0fdf1e	0.14049956
74	0xbedb77fd	-0.4286498
75	0x3e82462e	0.25444168
76	0xbe78c740	-0.24294758
77	0xbf823088	-1.017106
78	0xbfab2a2d	-1.3372246
79	0x3f19e067	0.60108036
80	0x3fac006d	1.343763
81	0xbedace75	-0.4273564
82	0xbf9ae698	-1.2101622
83	0x3fc815a3	1.5631603
84	0xbf40c817	-0.7530531
85	0x3f02517f	0.50905603
86	0x3d272697	0.040808287
87	0x3f40fe74	0.75388265
88	0xbf3d1e4f	-0.7387437
89	0x3ed98276	0.42482346
90	0x3f1cadfd	0.61202985
91	0x3f21561e	0.6302203
92	0xbf8b098d	-1.086229
93	0x3ea0dbbd	0.31417647
94	0x3f196122	0.5991384
95	0xbff7ae45	-1.9350058
96	0x3f65686d	0.89612466
97	0x3f037f14	0.5136578
98	0xbeacaf12	-0.33727318
99	0x3e6ab631	0.22921063
100	0x3f68fa38	0.91006804
101	0xbfc046ee	-1.5021646
102	0x3e4ccbfa	0.19999686
103	0xbf8f4262	-1.1192133
104	0xbdfac34e	-0.12244283
105	0xbf332c62	-0.699896
106	0xbf0942b0	-0.5361738
107	0x3f2cdafc	0.67521644
108	0x3f43bd05	0.76460296
109	0x3f28ecb5	0.65986186
110	0x3f95ec20	1.1712685
111	0xbf25505d	-0.6457575
112	0xbf9284a2	-1.1446726
113	0x3ecac080	0.3959999
114	0xbf79ad26	-0.9752983
115	0x3f623eae	0.8837689
116	0x3f3035e8	0.68832254
117	0x3e09d882	0.13461497
118	0x3ea38e31	0.3194442
119	0xbf089a87	-0.5336079
120	0xbd1cf489	-0.038319144
121	0x3d0f4ff1	0.034988347
122	0x3e374a96	0.17899546
123	0x3e8831e2	0.26600558
124	0x3f78fb84	0.9725878
125	0xbf5ad2f7	-0.85478157
126	0x3ebc6982	0.36799246
127	0xbe2954ea	-0.16536298
128	0xbfba2373	-1.4542068
129	0x3ea6e388	0.32595468
130	0x3f3c3dce	0.73531806
131	0x3f7c1ad5	0.9847844
132	0x3de87b64	0.1135166
133	0xbe4cfae0	-0.20017576
134	0xbf004dcc	-0.5011871
135	0x3fa0eeeb	1.2572912
136	0xbfab2b62	-1.3372614
137	0xbfa181d5	-1.2617747
138	0x3fd4b058	1.6616316
139	0xbe56a3df	-0.2096095
140	0x3ee66ea3	0.45006284
141	0x3d3d6b20	0.04624474
142	0xbf01b5f3	-0.5066826
143	0x3dcc2c46	0.09969382
144	0x3f0a422c	0.5400722
145	0xbdcfd35f	-0.10147738
146	0xbdacd33d	-0.08438728
147	0xbea9005e	-0.33008093
148	0xbff40045	-1.9062582
149	0x3efca75a	0.4934643
150	0xbf3a0fb8	-0.72680235
151	0xbfbc8564	-1.4728208
152	0x3f431565	0.7620452
153	0x3eb9d55d	0.36295596
154	0xbe4641c3	-0.19361024
155	0xbf8b7574	-1.0895219
156	0xbf17309e	-0.5905856
157	0x3eb93968	0.3617661
158	0xbf3b2e29	-0.7311731
159	0x3e920fdf	0.28527734
160	0x3d83c048	0.06433159
161	0x3fabfe36	1.3436954
162	0xbfba8aee	-1.4573648
163	0x3f0150e8	0.5051408
164	0xbfb6a7f7	-1.4270009
165	0x3f7bb754	0.9832661
166	0x3ee871b0	0.45399237
167	0x3f49f655	0.788915
168	0x3eb39b04	0.35079205
169	0x3f88e038	1.0693426
170	0x3f4a0486	0.7891315
171	0xbf0b19ed	-0.54336435
172	0x3f12b478	0.57306623
173	0xbdc64ddc	-0.09682819
174	0xbfb20cf9	-1.3910209
175	0x3ee0e4ed	0.43924657
176	0x3e35b875	0.17746146
177	0x3ef83920	0.48481083
178	0x3e73dbb2	0.23814276
179	0x3c26d35b	0.010182227
180	0xbf624bec	-0.883971
181	0x3eab3ec9	0.3344634
182	0xbf02977a	-0.51012385
183	0x3ea5eb2f	0.32405993
184	0x3f947cdb	1.1600603
185	0x3f6bc61a	0.92099154
186	0x3e34e61a	0.17665902
187	0xbe2b5c18	-0.1673435
188	0xbe0781d6	-0.13233122
189	0x3f527719	0.8221298
190	0x3f03d12a	0.51491034
191	0xbd02f966	-0.031976126
192	0x3f743b64	0.9540312
193	0x3e524e02	0.2053757
194	0x3f7edaf9	0.99552876
195	0xbf97fe38	-1.1874456
196	0xbf020d73	-0.5080177
197	0x3f4ec3e7	0.80767673
198	0x3f6c5247	0.92313045
199	0x3c933f04	0.017974384
200	0xbe18653f	-0.14882372
201	0xbf10442e	-0.56354034
202	0x3ee79eea	0.4523843
203	0x3f42253c	0.75838065
204	0xbfd48c0a	-1.6605237
205	0x3eba1829	0.36346558
206	0x3f097196	0.53688943
207	0x3f40d355	0.7532247
208	0xbdc23f60	-0.09484744
209	0xbf8c8186	-1.0977027
210	0xbf2f331b	-0.68437356
211	0xbe6fffd3	-0.23437433
212	0xbf570769	-0.8399568
213	0x3fa2ee5f	1.2728995
214	0xbf5bb82d	-0.85827905
215	0x3eab229f	0.3342485
216	0xbfa8b468	-1.3180056
217	0x3f0f1b07	0.55900615
218	0xbe408a1d	-0.18802686
219	0xbf872254	-1.0557351
220	0x3fba2e98	1.4545469
221	0x3f9c7d8a	1.2225811
222	0xbfcc93f5	-1.5982653
223	0xbfc77cfd	-1.5585018
224	0x3fb0314d	1.3765045
225	0x3e4e8de5	0.20171316
226	0x3db0b53a	0.08628316
227	0x3ed4f840	0.4159565
228	0x3e0c07f9	0.13674916
229	0x3f22f9da	0.63662493
230	0x3f9653b4	1.1744294
231	0x3fdbd625	1.7174727
232	0xbf78f62b	-0.9725062
233	0xbf9f86d8	-1.2463026
234	0xbef7e5b1	-0.48417428
235	0x3f345a3b	0.7045018
236	0x3d9e25fd	0.077220894
237	0x3f747822	0.9549581
238	0x3f538b3b	0.82634324
239	0x3e55d577	0.20882212
240	0x3e883730	0.26604605
241	0x3f1d9d16	0.6156782
242	0x3cb0105d	0.021492178
243	0x3f357d89	0.70894676
244	0x3ea60f5b	0.3243359
245	0xbfc77681	-1.558304
246	0x3e428d7b	0.18999283
247	0x3ee2276d	0.44170704
248	0xbf1fe690	-0.62461185
249	0x3e843432	0.25821072
250	0xbf0e8bc3	-0.5568201
251	0x3f474d16	0.77852
252	0xbfe20970	-1.765913
253	0x3f112912	0.56703293
254	0xbe2295fe	-0.1587753
255	0x3f05e6dd	0.52305394

controller.W.1 f4 [200, 5]
0	0x3e8c9653	0.27458438
1	0x3f273058	0.6530814
2	0xbf1f367c	-0.6219251
3	0xbf96703a	-1.1752999
4	0xbfb4be18	-1.4120512
5	0x3ea4f4e7	0.32218096
6	0x3f4e7ba8	0.80657434
7	0x3f79f1e5	0.97634727
8	0x3e93efc1	0.28893855
9	0x3dd50be8	0.104026616
10	0x3f068688	0.5254903
11	0xbebce052	-0.36889893
12	0x3f81cc62	1.0140498
13	0x3e666f66	0.22503433
14	0x3e1ee727	0.15517865
15	0xbe52ed1f	-0.20598267
16	0xbe45cd01	-0.19316484
17	0x3f7700eb	0.96485776
18	0xbe907371	-0.28213075
19	0x3f85bdc0	1.0448532
20	0x3e282f74	0.16424352
21	0x3f670062	0.9023496
22	0xbe8e5567	-0.27799532
23	0xbfd36624	-1.6515546
24	0xbfa17f17	-1.261691
25	0xbf5714ca	-0.84016097
26	0x3eedbe19	0.46434096
27	0xbfc174b6	-1.5113742
28	0x3f0d6ffc	0.55249
29	0xbf120191	-0.5703364
30	0xbe78c29d	-0.24292989
31	0xbf8369e3	-1.0266689
32	0xbf1dec01	-0.6168824
33	0xbe232074	-0.15930349
34	0x3f5c9640	0.86166763
35	0xbe708b62	-0.2349067
36	0xbf920117	-1.1406583
37	0xbe6db383	-0.2321301
38	0xbfafcfd9	-1.3735305
39	0x3e27afd4	0.16375667
40	0xbf0ab115	-0.54176456
41	0xbfabba7b	-1.3416284
42	0xbf20fb9c	-0.62883925
43	0xbf184621	-0.5948201
44	0xbd7715a7	-0.060323384
45	0x3effc3e2	0.49954134
46	0x3edbd01e	0.42932218
47	0xbfa0317d	-1.2515103
48	0xbfc89d0d	-1.5672928
49	0x3f8f2235	1.1182314
50	0x3f1f52ef	0.6223592
51	0xbe92c50f	-0.2866597
52	0xbfaaf8ea	-1.3357213
53	0xbedc9884	-0.4308511
54	0xbf43508b	-0.76294774
55	0x3f2a641a	0.6655899
56	0x3f6d043a	0.92584574
57	0x3eeaa33c	0.45827663
58	0x3f149485	0.5803912
59	0x3e8328de	0.25617117
60	0xbd0dfc6d	-0.03466456
61	0xbd52ade1	-0.051435355
62	0x3f8e05b3	1.1095489
63	0x3f93fe9d	1.1562077
64	0xbf76af19	-0.9636093
65	0xbf878774	-1.0588212
66	0x3ee73ec0	0.45165062
67	0x3ebfd4ba	0.37466985
68	0x3f624365	0.88384086
69	0x3f6bc179	0.9209209
70	0x3fea5b7d	1.830917
71	0xbc0768a0	-0.008264691
72	0x3fafd60a	1.3737195
73	0xbf04b90a	-0.5184485
74	0xbf32f94a	-0.69911635
75	0xbf216276	-0.63040864
76	0xbd13a547	-0.036046293
77	0x3f17d753	0.59312934
78	0xbf98c751	-1.1935827
79	0xbf947ec1	-1.1601182
80	0xbfc9221a	-1.5713532
81	0xbc7707db	-0.0150775565
82	0x3e9cc3ce	0.30618137
83	0xbf7fe16c	-0.9995334
84	0xbf5d7811	-0.8651133
85	0x3e71b836	0.23605427
86	0x3f81b187	1.0132302
87	0xbe03bb91	-0.1286452
88	0x3d01cd5d	0.03168999
89	0x3edbbd36	0.42917794
90	0xbf0f7f68	-0.5605378
91	0x3fa68512	1.300936
92	0xbf3376f6	-0.70103395
93	0x3fd800ab	1.6875204
94	0xbe8bda8c	-0.27315176
95	0x3f46d312	0.7766582
96	0xbebef87b	-0.3729895
97	0xbdff56c1	-0.12467719
98	0x382d93ca	4.1384053e-05
99	0x3f8a2e29	1.0795337
100	0xbf437aef	-0.76359457
101	0x3e8a2f25	0.26989093
102	0x3d7a1a67	0.061060335
103	0x3ed94a60	0.42439556
104	0x3fa62cc4	1.2982411
105	0x3fb44854	1.4084573
106	0xbea9043c	-0.33011043
107	0x3fc33e79	1.525344
108	0x3f49742c	0.7869289
109	0xbf01229e	-0.50443447
110	0x3f552b51	0.8326922
111	0x3f2b23fa	0.6685177
112	0xbf9ac2e5	-1.2090727
113	0xbf4f93e0	-0.81085014
114	0x3f79b35c	0.97539306
115	0xbee533e0	-0.4476614
116	0x3f538d98	0.8263793
117	0x3f81b7bc	1.0134196
118	0x3f8c024b	1.09382
119	0x3f5cbdd9	0.86227185
120	0x3f864118	1.0488615
121	0x3ec1fe0a	0.3788913
122	0x3ee3196a	0.44355327
123	0x3c4620f3	0.012092817
124	0xbd320dce	-0.043470196
125	0xbfab3f40	-1.3378677
126	0xbf98ad35	-1.1927859
127	0x3fbad961	1.4597589
128	0xbf358135	-0.7090028
129	0x3f98fddd	1.1952473
130	0x3f80920b	1.0044569
131	0x3eeee77c	0.46660984
132	0xbee88e73	-0.4542118
133	0x3fa4793b	1.2849497
134	0xbf7f6e57	-0.9977774
135	0x3ed88d6e	0.42295402
136	0x3fc79d71	1.5594922
137	0x3f97718f	1.183153
138	0x3dad009d	0.084473826
139	0xbf4acca0	-0.7921848
140	0x3f3a7cd2	0.7284671
141	0x3e4924c8	0.19642937
142	0x3f8609d1	1.0471746
143	0xbf0a6736	-0.5406374
144	0xbe5d2ffb	-0.21600334
145	0xbebc1b91	-0.36739781
146	0xbf374b07	-0.7159886
147	0x3fd62e1d	1.6732823
148	0x3f34dedf	0.70652574
149	0x3fb70f99	1.4301635
150	0xbf1d9483	-0.61554736
151	0x3fa0afb0	1.2553616
152	0x3f4bd085	0.7961505
153	0x3fdcb79e	1.7243536
154	0x3e72d20c	0.23712939
155	0xbe94a87a	-0.29034787
156	0xbeda394c	-0.4262184
157	0xbdbb7fe9	-0.09155256
158	0xbfa5c061	-1.2949334
159	0xbf94d002	-1.1625979
160	0x3f0ff18f	0.56227964
161	0x3f527685	0.82212096
162	0xbec25deb	-0.3796228
163	0x3f3aa758	0.72911596
164	0xbdfa783f	-0.12229966
165	0x3f91bbe7	1.1385468
166	0xbeea0e64	-0.45714104
167	0x3e88c71e	0.26714414
168	0x3f8a16ff	1.0788268
169	0xbebd75d7	-0.37003967
170	0xbf8f524a	-1.1196988
171	0xbe363b4e	-0.1779606
172	0x3f71c344	0.94438577
173	0xbf1d3e22	-0.6142293
174	0xbfacbbd9	-1.3494827
175	0x3f010833	0.50403136
176	0xbfc07c8b	-1.5038007
177	0x3d838a9b	0.06422921
178	0xbfe86732	-1.8156493
179	0x3f77d95d	0.96816045
180	0x3d062f2c	0.03275983
181	0xbf787afc	-0.9706266
182	0x3fb53d54	1.4159341
183	0x3f888899	1.0666686
184	0x3f161d9a	0.5863892
185	0xbec5d1ef	-0.3863673
186	0xbf6d7c77	-0.92768043
187	0xbf0eca2f	-0.5577726
188	0x3f80d565	1.0065123
189	0xbfb13df9	-1.3847038
190	0xbf6e8a30	-0.9317961
191	0x3e997459	0.2997158
192	0x3f18e201	0.59719855
193	0x3f06eda6	0.5270637
194	0x3f881ec4	1.0634389
195	0xbf4791d0	-0.7795687
196	0xbea9ba6b	-0.33150038
197	0xbed94e34	-0.42442477
198	0xbf3a1ce3	-0.7270033
199	0xbec6a303	-0.38796243
200	0x3fa0e572	1.2570021
201	0xbf4ed39c	-0.8079164
202	0xbd92b6f3	-0.07163801
203	0x3e99afd8	0.3001697
204	0x3f44cfd7	0.7687964
205	0xbfbaf1de	-1.4605062
206	0xbf461e0e	-0.7738961
207	0xbdfa729e	-0.12228893
208	0xbafb4b2d	-0.0019172184
209	0xbf4e090a	-0.8048254
210	0x3f0364f7	0.51325935
211	0xbedf7295	-0.43642107
212	0x3f8775d8	1.0582838
213	0xbf0ab834	-0.5418732
214	0x3f27bc75	0.6552194
215	0x3f39a3d2	0.72515595
216	0x3f8b43e1	1.088009
217	0xbeaf9fee	-0.34301704
218	0xbf231517	-0.63704056
219	0x3ef23ad6	0.47310513
220	0xbda9cf91	-0.08291543
221	0xbf0b2aca	-0.54362166
222	0xbf36f1be	-0.7146262
223	0x3f4b8960	0.7950649
224	0xbe74342c	-0.23848027
225	0x3f642e41	0.8913308
226	0x3ecda066	0.40161437
227	0xbf693c1d	-0.9110735
228	0x3f02346d	0.50861245
229	0x3f2e31ff	0.6804504
230	0x3fae4b60	1.3616753
231	0x3f1648f9	0.587051
232	0x3ea8deda	0.32982522
233	0xbf156863	-0.58362406
234	0x3f1817b8	0.5941119
235	0x3efb54e0	0.49088192
236	0x3f114bd2	0.5675632
237	0x3f95e691	1.1710988
238	0x3ebedabb	0.37276253
239	0x3e3a5079	0.1819476
240	0xbe14fd60	-0.1454978
241	0xbf81717a	-1.0112755
242	0x3df3acc0	0.11898184
243	0x3facfdef	1.3514994
244	0xbf242993	-0.6412594
245	0x3f6a4212	0.91507065
246	0x3e9b92d4	0.30385458
247	0xbec68d7b	-0.38779816
248	0x3f2f67be	0.68517673
249	0x3d649ee7	0.055815604
250	0x3d7355fa	0.059408166
251	0x3fdd9120	1.7309914
252	0xbed79ca6	-0.421117
253	0x3dfa2c74	0.1221551
254	0x3fbdb506	1.4820869
255	0x3f9c36c5	1.2204214

controller.W.2 f4 [1, 5]
0	0xbe87e73d	-0.26543608
1	0x3dfc21a4	0.12311104
2	0x3ef3999b	0.4757813
3	0x3f3f0e8e	0.74631584
4	0x3f55126b	0.8323123

controller.U.0 f4 [200, 200]
0	0x3fe8cc1c	1.8187289
1	0x3fedd859	1.8581649
2	0x40136d40	2.303543
3	0x4024e083	2.576203
4	0x3eab2e3f	0.3343372
5	0x4012fea8	2.296793
6	0x4023d3f4	2.5598116
7	0x401b2c77	2.424589
8	0x3f5499a5	0.8304694
9	0x3f87c3a3	1.0606579
10	0x3e05a5ed	0.13051577
11	0x400bfc81	2.1872866
12	0x40362d22	2.8465047
13	0x3fe33f1c	1.7753634
14	0x402c2668	2.6898441
15	0x401bba2b	2.4332378
16	0x3f7a9413	0.97882193
17	0x3e9ee14b	0.3103126
18	0x3ecddbfc	0.40206897
19	0x3fe0e0d7	1.7568616
20	0x402b28ac	2.6743574
21	0x3ec3ed2a	0.3826688
22	0x40027acf	2.0387456
23	0x3fa1fa31	1.2654477
24	0x3f117b77	0.5682902
25	0x4013c212	2.30872
26	0x3faecff6	1.3657215
27	0x3fa19daa	1.262624
28	0x3fabfd9c	1.343677
29	0x40118c16	2.2741752
30	0x402c7f5d	2.6952736
31	0x403458cf	2.8179204
32	0x3fa46a3f	1.2844924
33	0xbcc6e895	-0.024280826
34	0x3fcf76d3	1.6208137
35	0x395b8a3e	0.00020936967
36	0x3eb02a7d	0.34407416
37	0x3f67d2b7	0.905559
38	0x3d87a3b6	0.06623022
39	0x3f0fcb6a	0.5616976
40	0x40205734	2.5053225
41	0x3fb6141b	1.4224886
42	0x4023f26b	2.561671
43	0x403a8f13	2.9149826
44	0x3f1a4843	0.6026651
45	0x3f01ae04	0.5065615
46	0x3f83212b	1.0244497
47	0x3f320bf9	0.6954952
48	0x3f60ba3c	0.8778417
49	0x400e1f64	2.220666
50	0x3ff87b60	1.9412651
51	0x3f917d97	1.1366452
52	0x40213b38	2.5192394
53	0x400136c2	2.0189672
54	0x3fc44629	1.5333911
55	0x4009df79	2.1542647
56	0x402ed380	2.731659
57	0x4017fe8a	2.3749108
58	0xbf8c6536	-1.0968387
59	0x3fd0d81a	1.6315949
60	0x401a6ea5	2.4130032
61	0x402016ad	2.501384
62	0x401d9494	2.4621935
63	0x3fbdab51	1.4817907
64	0x402ca424	2.6975183
65	0x3f4a5158	0.7903037
66	0x3f63223e	0.88724124
67	0x3f8af3e0	1.0855675
68	0x4028b0ee	2.635799
69	0x3ee619ba	0.44941503
70	0x403b0427	2.9221284
71	0x3f870720	1.0549049
72	0x3f647e53	0.89255255
73	0x3f6157ea	0.8802477
74	0x3e9a35c8	0.30119157
75	0x3f8a289b	1.0793642
76	0x400c8bc5	2.1960309
77	0x3ecc2b79	0.39876917
78	0x402b6453	2.6779983
79	0x3fadd433	1.3580383
80	0x40047788	2.0697956
81	0x3fefb0f8	1.8725882
82	0x3fa3ddda	1.2802079
83	0x401a54ba	2.4114213
84	0x3f845a44	1.0340047
85	0x3ffc1321	1.9693338
86	0x3ff4de2c	1.9130301
87	0x400711d7	2.1104639
88	0x3fd6506d	1.6743294
89	0x3f0d9827	0.5531029
90	0x3fff9878	1.9968405
91	0x4025fd33	2.593579
92	0x3fc8f546	1.5699852
93	0x3fe4b8d3	1.7868904
94	0x3fd9b744	1.7009053
95	0x40096fd6	2.147451
96	0x3f389ebe	0.7211722
97	0x40020c42	2.0319982
98	0x3faadeb6	1.3349216
99	0x3f81827e	1.0117948
100	0x4025998f	2.5874975
101	0x3f7edc16	0.99554574
102	0x401dcd18	2.465643
103	0x3f92c05d	1.1464955
104	0x3f68f832	0.91003716
105	0x3fe21924	1.7663922
106	0x4035ee39	2.842665
107	0x4025a89f	2.5884168
108	0x4026a581	2.6038516
109	0x40245d64	2.5682
110	0x3fa6b161	1.3022882
111	0x3f2cdf1e	0.6752795
112	0x3f94dec1	1.1630479
113	0x3f74bc64	0.9559996
114	0x4005cfef	2.0908163
115	0x3d8642e9	0.06555731
116	0x4011f34d	2.280475
117	0x401806be	2.3754115
118	0xbdf15c5e	-0.11785196
119	0x3f886d7a	1.065841
120	0x3f617254	0.88065076
121	0x3f7e93f2	0.99444497
122	0x3e2411e3	0.16022448
123	0x3effe7e4	0.49981606
124	0x40195fd3	2.3964736
125	0x3f0519a0	0.51992226
126	0x3f6f16dc	0.93394256
127	0x3ec84e4c	0.39122236
128	0x3f6aa867	0.9166321
129	0x402c463f	2.6917875
130	0x3fb7cec9	1.4359981
131	0x3f057d5d	0.52144414
132	0x3f96babf	1.177574
133	0x3facde9c	1.3505435
134	0x3f8dd0de	1.1079366
135	0x40401906	3.0015273
136	0x40451bbe	3.0798182
137	0x3e758524	0.2397657
138	0x3fc28bec	1.5198951
139	0x40342353	2.814656
140	0x400c3ece	2.1913333
141	0x3fb86a22	1.4407389
142	0x3fa9d97b	1.3269495
143	0x40052e1a	2.0809388
144	0xbe31441e	-0.17311141
145	0x3ffef7a4	1.9919324
146	0x3e349088	0.1763326
147	0x3f7c717a	0.9861065
148	0x400c542d	2.1926377
149	0x3fa761ff	1.3076781
150	0x3fbbba06	1.4666145
151	0x4041a6bf	3.0258024
152	0x3f9a7299	1.2066222
153	0x3ff8313d	1.9390026
154	0x3f033218	0.5124831
155	0x3f8c7afb	1.0975031
156	0x3fa99a85	1.3250281
157	0x3ee279e9	0.44233635
158	0x3eab5624	0.33464158
159	0x3f09be6d	0.5380619
160	0x403fb579	2.9954512
161	0x401a2b82	2.4089055
162	0x400db104	2.2139292
163	0x400be91d	2.186103
164	0x401be035	2.4355595
165	0x3f32eac6	0.69889486
166	0x4015a143	2.3379676
167	0x4004ac99	2.0730345
168	0x4045862a	3.0863137
169	0x40121c02	2.2829595
170	0x3e8fdfd1	0.28100446
171	0x3fd6efb1	1.6791898
172	0x4037f386	2.8742385
173	0x3fdaf92e	1.7107294
174	0x3f9736fb	1.1813654
175	0x4023b3c7	2.5578477
176	0x4008da34	2.138318
177	0x402e8992	2.7271466
178	0x3fc24a24	1.5178876
179	0x3c863d70	0.016386718
180	0x40207548	2.5071583
181	0x4017e029	2.3730567
182	0x402cc267	2.6993654
183	0x40172a6b	2.361964
184	0x3f9ef448	1.2418299
185	0x3dbbe7eb	0.09175094
186	0xbd791c15	-0.060817797
187	0x3fdbed10	1.7181721
188	0x3f14367f	0.57895654
189	0x3f827238	1.0191107
190	0x4030a72a	2.760203
191	0x3ebcac60	0.36850262
192	0x3fdf111d	1.7427098
193	0x400cc70e	2.1996493
194	0x3eb72224	0.35768235
195	0x3eb4d7f6	0.35321015
196	0x3f95143a	1.1646798
197	0x3e282155	0.16418965
198	0x3efd79bd	0.4950694
199	0x3fc20939	1.5159065
200	0xbe8b79a5	-0.27241245
201	0x3e3aad64	0.18230206
202	0x3ed0eeef	0.40807292
203	0xbd8369cc	-0.064166635
204	0xbd1f13b7	-0.03883716
205	0xbdc0f37e	-0.094214424
206	0xbd88cbd6	-0.066795036
207	0xbccb9b25	-0.024854252
208	0x3eafdf15	0.34349886
209	0xbe439e25	-0.19103296
210	0x3ea9d328	0.33168912
211	0x3ec03b42	0.3754521
212	0xbf044d03	-0.5168001
213	0x3e9e28a1	0.30890372
214	0xbed1925d	-0.4093198
215	0xbd787356	-0.060656868
216	0x3f538b04	0.82633996
217	0xbc139efb	-0.009010072
218	0x3f14870c	0.58018565
219	0x3de2a9f1	0.1106757
220	0xbf045457	-0.5169119
221	0xbed93a2b	-0.4242719
222	0x3dab4fc3	0.08364823
223	0xbeb1cd22	-0.34726816
224	0xbe72b382	-0.2370129
225	0xbdac797b	-0.08421608
226	0xbf2c29b5	-0.6725114
227	0x3f358eb1	0.70920855
228	0xbeaeb452	-0.34121948
229	0xbde417d1	-0.11137355
230	0x3d9329b4	0.071856886
231	0xbf0885f0	-0.5332937
232	0x3f0f79d0	0.56045246
233	0xbe2a7738	-0.16647041
234	0xbed9929e	-0.42494673
235	0xbe487d63	-0.19579081
236	0x3eeebe5a	0.46629602
237	0xbec8d8d5	-0.3922793
238	0xbe51c959	-0.20486964
239	0xbe11ba8e	-0.14231321
240	0xbe88d55b	-0.26725277
241	0xbf62e763	-0.8863432
242	0x3b1d9d04	0.0024049887
243	0xbeb12e71	-0.34605744
244	0x3f6e60e7	0.9311661
245	0xbe47c72f	-0.19509576
246	0x3f1a6990	0.60317326
247	0xbe5f552f	-0.21809839
248	0xbe7da0dc	-0.24768394
249	0xbe03e733	-0.12881164
250	0x3e0cc1d5	0.13745816
251	0xbe27e5e2	-0.16396287
252	0xbed1f6a8	-0.41008496
253	0x3d8dc685	0.0692263
254	0xbed81763	-0.42205343
255	0xbe23b46a	-0.15986791

controller.U.1 f4 [1, 200]
0	0x4009aa9a	2.1510377
1	0x3ef0422f	0.46925494
2	0x3ec6ba48	0.38813996
3	0x3e88d451	0.26724485
4	0x3fc1e060	1.5146599
5	0x3fc0e91b	1.5071138
6	0x3f7dd935	0.99159557
7	0x3fe02cec	1.7513709
8	0x401d7633	2.4603393
9	0x3fc0f96a	1.5076115
10	0x3f974e04	1.1820683
11	0x3ed00e1f	0.40635774
12	0x3f1d4b72	0.61443245
13	0x3e5acfc3	0.21368317
14	0x3f973d01	1.1815492
15	0x3fa8b91a	1.3181489
16	0x4009da96	2.1539664
17	0x3e6f32ad	0.23359175
18	0x3fa692c0	1.3013535
19	0x3ea73c99	0.3266342
20	0x3f7ff24c	0.9997909
21	0x3fe63f0e	1.7987993
22	0x3eff299b	0.4983643
23	0x3d9b5587	0.075846724
24	0x3e8e5f79	0.27807215
25	0x3f9aaf20	1.2084694
26	0x3f5d9384	0.86553216
27	0x3fb6253b	1.4230112
28	0x3e72e3b3	0.23719673
29	0x3fab66a9	1.3390704
30	0x3fbff4bb	1.4996561
31	0x402a1262	2.657372
32	0x3e67c212	0.22632626
33	0x3fa4af67	1.2866029
34	0x3fb3aaaf	1.4036463
35	0x3f9b7602	1.2145388
36	0x3fabf0c4	1.3432851
37	0x3fbad48d	1.4596115
38	0x3e63a789	0.22231878
39	0x3ff187ca	1.8869565
40	0x3f99b8f5	1.200957
41	0x403dd186	2.9659133
42	0x3ee8e33f	0.45485875
43	0x3e78be5f	0.24291371
44	0x3eb4f3be	0.3534221
45	0x3de47669	0.111553974
46	0x3ff944d3	1.9474128
47	0x4012da56	2.2945762
48	0x3f66078c	0.89855266
49	0x3e6d687c	0.23184389
50	0x4003648d	2.0530121
51	0x3fb8bf37	1.4433354
52	0x3f7f2dcb	0.9967925
53	0x3ea77575	0.327068
54	0x3f6799ed	0.9046925
55	0x4007478b	2.1137416
56	0x3e915724	0.28386796
57	0x3ede39c2	0.4340344
58	0x3e98ea3e	0.29866213
59	0x3fa6f357	1.3043011
60	0x3f07cbd7	0.5304541
61	0x3f726fb9	0.94701725
62	0x3f5dfe54	0.867162
63	0x3e4e66bb	0.20156376
64	0x3f0ec9ff	0.5577697
65	0x3e315dec	0.17320985
66	0x3f855987	1.0417947
67	0x401304eb	2.2971752
68	0x3f9b518c	1.2134261
69	0x3e059652	0.13045624
70	0x3e88b5c4	0.26701176
71	0x3faf42a9	1.3692218
72	0x3f1ec2e3	0.62016124
73	0x3f9835d2	1.1891425
74	0x3fbc1336	1.4693363
75	0x3fc43203	1.5327762
76	0x40466dc7	3.1004503
77	0x3fc363f9	1.5264884
78	0x3fa32dcc	1.2748351
79	0x3f9b9a05	1.2156378
80	0x3fd656d4	1.6745248
81	0x3e70a731	0.23501278
82	0x3fb7424f	1.4317111
83	0x3f250581	0.64461523
84	0x401b58a0	2.4272842
85	0x3f6fa6cb	0.9361388
86	0x3fe20716	1.7658412
87	0x3e3aa6d9	0.1822771
88	0x3e7f005f	0.24902485
89	0x3ff79ba5	1.9344374
90	0x3f928220	1.1445961
91	0x3ec7a077	0.38989612
92	0x3fb2cd34	1.3968873
93	0x3e893b11	0.26802877
94	0x3e98d258	0.2984798
95	0x3f8790b2	1.0591033
96	0x3fe5f130	1.796423
97	0x3ca0d70f	0.019633798
98	0x3fd1d143	1.6391987
99	0x3e9d0f85	0.30675903
100	0x3eeea632	0.46611172
101	0x3eb1d22c	0.3473066
102	0x3f884084	1.0644689
103	0x3f9bdbeb	1.2176489
104	0x3ea7daa6	0.32784003
105	0x3ff3a166	1.903363
106	0x3e34f311	0.17670847
107	0x3efd3a2f	0.49458453
108	0x3e4332e7	0.19062386
109	0x3ea7000a	0.32617217
110	0x3f9cde37	1.2255315
111	0x3e895689	0.26823834
112	0x3ea0baab	0.31392416
113	0x3f40965f	0.7522945
114	0x3e48e5ce	0.19618914
115	0x3d1314d4	0.035908535
116	0x3fc19fdc	1.512691
117	0x3edbab42	0.42904097
118	0x3f591299	0.84794
119	0x4023bc74	2.5583773
120	0x3df196ae	0.11796318
121	0x3fa8f8dc	1.3200946
122	0x3fbcd102	1.4751284
123	0x3f148b27	0.5802483
124	0x3eb1beca	0.34715873
125	0x3fb607b8	1.4221106
126	0x3e8cfd4f	0.2753701
127	0x3f3a407f	0.72754663
128	0x3fc1dbfc	1.5145259
129	0x3eb52991	0.35383275
130	0x3fe7b1c6	1.8101127
131	0x3f103503	0.5633089
132	0x3fe8e6eb	1.819547
133	0x3e966aaa	0.29378253
134	0x3fb18981	1.3870088
135	0x3fa4e83d	1.2883373
136	0x3f57dc10	0.84320164
137	0x3fcebcfb	1.6151422
138	0x3f7d7e65	0.9902099
139	0x3f7128fe	0.94203174
140	0x3fff9481	1.9967195
141	0x3fd19bb9	1.6375648
142	0x3f6eaf1f	0.93235964
143	0x3f243ac3	0.64152163
144	0x3fea510b	1.8305982
145	0x3f45101e	0.7697772
146	0x3fce203a	1.6103585
147	0x3f29ded4	0.66355634
148	0x3fb09a80	1.379715
149	0x3f01abcc	0.50652766
150	0x3f28ba35	0.6590913
151	0x3ef864b1	0.4851432
152	0x3f1f231c	0.6216295
153	0x3fbca317	1.4737271
154	0x3f624057	0.88379425
155	0x3f929585	1.145188
156	0x3fcf4c68	1.6195192
157	0x3e44301a	0.19158974
158	0x3e83fc13	0.25778255
159	0x3ed08251	0.40724424
160	0x3f9df479	1.2340232
161	0x3f9317fd	1.1491696
162	0x3f1daa80	0.6158829
163	0x40282faa	2.6279092
164	0x3fec5606	1.8463752
165	0x3f01eb92	0.50750077
166	0x3fe7f321	1.8121072
167	0x3f62f080	0.88648224
168	0x3f495a1c	0.7865312
169	0x3ff0d06e	1.8813608
170	0x3ff7fcd2	1.937403
171	0x3ff94446	1.947396
172	0x3f9cea68	1.2259035
173	0x3fff4245	1.9942099
174	0x3edcd6ef	0.4313273
175	0x3fbca105	1.4736639
176	0x3e8429d7	0.2581317
177	0x3f6ea614	0.93222165
178	0x3f90235c	1.1260791
179	0x3f91f938	1.140418
180	0x3de0310d	0.10946856
181	0x3fd1565f	1.6354483
182	0x3f975512	1.1822836
183	0x3fb77021	1.4331094
184	0x3eef6a37	0.46760723
185	0x3f8fc5f4	1.1232285
186	0x3f9cc09c	1.224628
187	0x3fa76f54	1.308085
188	0x3ecd1c2c	0.40060556
189	0x3eecdb35	0.46260992
190	0x3fa4f523	1.288731
191	0x3e2148dc	0.1575045
192	0x3f1102c8	0.5664487
193	0x3fc31c40	1.5242996
194	0x3f00b563	0.50276774
195	0x3f09d0b7	0.538341
196	0x3fa9edf8	1.3275747
197	0x3fbc5bf7	1.4715565
198	0x3fdc18a9	1.7195026
199	0x4016fe5f	2.3592756

controller.bias.0 f4 [200]
0	0x3fcc5dc6	1.5966117
1	0x3eec902f	0.46203753
2	0x3ed5eb7b	0.4178122
3	0x3fc8919b	1.5669435
4	0x3f83f420	1.0308876
5	0x3f4ce528	0.80037165
6	0x3f8a99cc	1.0828185
7	0x3fe70507	1.8048409
8	0xbef8352b	-0.48478064
9	0x3fb3386c	1.4001594
10	0xbf9b5412	-1.2135031
11	0x3f2f18b5	0.68397075
12	0x401d2daa	2.455912
13	0x3ee4b253	0.446673
14	0x4016726c	2.3507338
15	0x4000748e	2.007114
16	0x3defa967	0.11702233
17	0xbf5f5941	-0.87245566
18	0xbf628caa	-0.88495886
19	0x3f1bdd7b	0.6088483
20	0x3ff7e657	1.9367169
21	0x3fd72ecc	1.6811156
22	0x3fe17d9c	1.7616458
23	0x3fce5b46	1.6121604
24	0x3fa75d71	1.3075391
25	0x40097d61	2.1482775
26	0x3fd9e82e	1.7023981
27	0xbcfaa1cd	-0.03059473
28	0x3fc80e4b	1.5629362
29	0x3fe51725	1.7897688
30	0x3f9cade1	1.2240564
31	0x3ff95431	1.9478818
32	0x3f226718	0.6343856
33	0x3f167b9a	0.5878235
34	0x3f271db5	0.65279704
35	0x3e80763e	0.25090212
36	0xbecf0faa	-0.40441638
37	0x3fb0e4af	1.3819789
38	0x3f516912	0.8180095
39	0x3dc45f81	0.095885284
40	0x3fcfb238	1.6226263
41	0x3fd8c14e	1.6933992
42	0x3fe8556a	1.8151066
43	0x4007b4cb	2.1204097
44	0xbe00e120	-0.12585878
45	0x3f995d34	1.1981568
46	0x3f02c971	0.51088625
47	0x3fb3ef4d	1.4057404
48	0x3f913c03	1.1346439
49	0x3fb68886	1.4260414
50	0x3fb113ce	1.3834169
51	0x3f84ba7b	1.0369409
52	0x401723df	2.3615644
53	0x3f01e048	0.5073285
54	0x3fe087bd	1.7541424
55	0x3fc3016a	1.5234807
56	0x3ff5a674	1.9191422
57	0x4000a1ae	2.0098681
58	0xbfab6f1e	-1.3393285
59	0x3fc13fe3	1.5097622
60	0x3f89a9d2	1.075495
61	0x3f9f90ed	1.2466103
62	0x40042f44	2.0653849
63	0x3f9185f4	1.1369004
64	0x3ffd30be	1.97805
65	0xbf5e9278	-0.86942244
66	0x3fb9d84f	1.4519137
67	0x3fb8cf0e	1.4438188
68	0x3fab3b42	1.3377459
69	0x3fb575ef	1.4176615
70	0x3ff5e4f7	1.92105
71	0xbd1d621d	-0.038423646
72	0x3d8f31cc	0.0699192
73	0x3ca124a1	0.019670786
74	0xbe6235dc	-0.22090858
75	0x3fcc3c3e	1.5955884
76	0x3f7bf06d	0.98413736
77	0xbea02bb5	-0.31283346
78	0x400c6aff	2.1940305
79	0x3f337f3f	0.7011604
80	0x3fb9bac2	1.4510119
81	0x3e50447d	0.20338626
82	0x3f3b58f8	0.7318263
83	0x4011b344	2.2765665
84	0x3f91923a	1.137275
85	0x3fe015fe	1.7506711
86	0x3f5c6dee	0.8610524
87	0x3fd38691	1.6525441
88	0x3fad474a	1.3537381
89	0x3fc209fa	1.5159295
90	0x3fb2f254	1.3980203
91	0x3fbc12a1	1.4693185
92	0x3f1eb5a7	0.6199593
93	0x3eb64dd7	0.35606262
94	0x3fb1a290	1.3877735
95	0x3fe60b59	1.7972213
96	0xbf495a23	-0.7865316
97	0x3f508ddc	0.8146646
98	0x3fba746d	1.456678
99	0x3fb65811	1.4245626
100	0x400a79b6	2.1636786
101	0x3f8cedc8	1.1010065
102	0x3fe3b0c5	1.7788321
103	0x3fc13c3c	1.5096507
104	0x3d455a97	0.048182096
105	0x3fe58bea	1.7933323
106	0x3fc190d1	1.512232
107	0x3fc222dd	1.516689
108	0x3fa79acd	1.3094116
109	0x402b100f	2.6728551
110	0x3fd1055d	1.6329762
111	0x3f9102dd	1.1328999
112	0xbdd3261f	-0.103100054
113	0x3e2f0862	0.17093042
114	0x3f53b359	0.8269554
115	0x3f920373	1.1407303
116	0x3f72ce72	0.9484626
117	0x3f0e610d	0.5561684
118	0x3f4fa403	0.8110964
119	0x3cc8862d	0.024478042
120	0x3b73e8c6	0.0037217601
121	0x3dba019c	0.09082338
122	0xbfb3f65d	-1.4059559
123	0xbf97a58e	-1.1847398
124	0x3fdb0216	1.7110012
125	0x3f884b9e	1.0648077
126	0xbf1379a3	-0.5760748
127	0x3fc8aa37	1.5676945
128	0x3e92c852	0.28668457
129	0x40059975	2.0874913
130	0x3f284698	0.6573272
131	0xbdeeb4dc	-0.1165559
132	0x3fcaf5ee	1.5856302
133	0x3fa0e419	1.256961
134	0x3e8856e2	0.26628786
135	0x3fed4f41	1.8539811
136	0x401bc3a4	2.433816
137	0x3f8d7873	1.1052383
138	0x3f27095e	0.6524867
139	0x3fd5d2f9	1.6705009
140	0x3f858a1d	1.0432774
141	0x3f57dd2e	0.8432187
142	0x3eee655e	0.46561712
143	0x3fb2a886	1.3957679
144	0xbf104e45	-0.5636943
145	0x3fe2872b	1.76975
146	0x3f6300b8	0.8867297
147	0xbe1f679f	-0.15566872
148	0x3fd398a5	1.6530958
149	0x3fd92a82	1.6966097
150	0x3e881307	0.26577017
151	0x3fe12d95	1.7592036
152	0x3f68b4a2	0.90900624
153	0x3fbd8c4b	1.4808439
154	0xbf92dae9	-1.1473056
155	0x3e0e008c	0.13867396
156	0x3f9c81e4	1.222714
157	0x3f949e39	1.1610786
158	0xbf25deaa	-0.64792883
159	0x3fd40095	1.6562678
160	0x3fe9df9f	1.8271369
161	0x4009794a	2.148028
162	0x3fc7f488	1.56215
163	0x3fb93659	1.446971
164	0x3fd0295e	1.6262624
165	0xbe4828da	-0.19546834
166	0x40179936	2.3687263
167	0x3f90abc7	1.1302422
168	0x402b8b2f	2.68037
169	0x3f4e3e45	0.80563766
170	0xbf82cfc6	-1.0219657
171	0x3fb331f9	1.3999625
172	0x40063914	2.0972338
173	0x3f6d33ea	0.9265734
174	0x3fd0513b	1.627479
175	0x3fe7e906	1.8117988
176	0x3fa673a1	1.3004037
177	0x3fcd5047	1.6040124
178	0x3f23e116	0.6401533
179	0x3f3a1ab1	0.7269698
180	0x3f98d4d1	1.1939946
181	0x3fcee520	1.6163673
182	0x4004c510	2.0745277
183	0x3f8c5d8a	1.0966046
184	0x3ea7a392	0.32741982
185	0xbfe15040	-1.7602615
186	0x3f1d666d	0.61484414
187	0x3ea44b70	0.32088804
188	0xbf8ac873	-1.0842422
189	0x3fc2b1be	1.5210493
190	0x3fcbc5fb	1.5919794
191	0x3fc7d8ce	1.5613039
192	0x3fc81ab3	1.5633148
193	0x3fe12709	1.7590038
194	0x3facbce8	1.349515
195	0x3f5bbc29	0.85833985
196	0x3f7c0738	0.98448515
197	0xbfa2530d	-1.2681595
198	0xbf956cb7	-1.1673802
199	0x3efec60d	0.49760476

controller.bias.1 f4 [200]
0	0x3faba5ed	1.3410012
1	0xc0382fb5	-2.8779118
2	0xbf811708	-1.0085154
3	0xbf1ff1a0	-0.62478065
4	0x3f287373	0.6580116
5	0x3ef61bd8	0.48068118
6	0x3ea2051e	0.3164453
7	0x3fad155d	1.3522145
8	0x40042c5a	2.065207
9	0x3e8608f0	0.26178694
10	0x3f88035e	1.0626028
11	0xc0603239	-3.5030653
12	0xbeea994c	-0.4582008
13	0xbf74150e	-0.95344627
14	0x3d5d31cb	0.054002564
15	0x3f8ae0eb	1.084989
16	0x3fab48fd	1.3381649
17	0xbf9adfa8	-1.2099504
18	0xbce1d3b7	-0.027566774
19	0xbf0ef7df	-0.5584697
20	0xbed5eae7	-0.4178078
21	0xbdbbe507	-0.09174543
22	0xbe48d362	-0.19611886
23	0xbf21c028	-0.6318383
24	0xc00a5a22	-2.1617513
25	0x3eac8cbd	0.33701125
26	0xbef83b9c	-0.48482978
27	0xbdc8de82	-0.09808065
28	0xbec46148	-0.3835547
29	0xbe3550e7	-0.17706643
30	0xbe401f77	-0.18762003
31	0x40060eb3	2.0946472
32	0xbfa01fda	-1.250972
33	0xbe78c7d9	-0.24294986
34	0x3f35405e	0.7080134
35	0x3f999621	1.1998941
36	0xbd650b95	-0.05591925
37	0x3f36a294	0.71341825
38	0xbfac6f6f	-1.3471507
39	0x3fbd14fd	1.477203
40	0xbe9e3ac5	-0.30904213
41	0x40011f04	2.017518
42	0xbf0b2600	-0.5435486
43	0xbf13d045	-0.5773967
44	0x3d3d6004	0.046234146
45	0xbf5f1417	-0.8714003
46	0xbe0363a9	-0.12830986
47	0x3e63b739	0.22237863
48	0xbd66fcb2	-0.056393333
49	0xbf4d7077	-0.8024973
50	0xbc8f4377	-0.017488224
51	0xbedb3999	-0.4281738
52	0x3f9923ab	1.196401
53	0xbefb1699	-0.49040678
54	0x3f93dee9	1.1552402
55	0x3ff67196	1.9253414
56	0xbf1f5749	-0.6224256
57	0xc01ed1e6	-2.4815612
58	0xc00c21bc	-2.189559
59	0x3ef0a11d	0.4699792
60	0xbef8f350	-0.48623133
61	0xbebad0cb	-0.3648742
62	0xbe07f5e0	-0.13277388
63	0xbd89b9bb	-0.067248784
64	0xc05fe882	-3.4985662
65	0xbfa2729e	-1.2691228
66	0x3f37fa4f	0.71866316
67	0x3fca7a7a	1.5818627
68	0x3f5cf901	0.8631745
69	0xbf411407	-0.75421184
70	0xbf7aa9e7	-0.979155
71	0x3f4e0836	0.8048128
72	0xbe861470	-0.26187468
73	0xbe8d825d	-0.27638522
74	0x3fc44332	1.5333006
75	0x3f8383e7	1.0274628
76	0x3ff5605d	1.9170033
77	0xbe81ba6c	-0.2533754
78	0x3f617eb0	0.88083935
79	0x3f9e6785	1.2375342
80	0x3f84c605	1.0372931
81	0xbf39103a	-0.72290385
82	0x3f58952a	0.84602606
83	0x3e70d3a2	0.23518232
84	0x3fe41586	1.7819068
85	0x3f5ed34c	0.87041163
86	0x3f1d46fe	0.6143645
87	0xbf79220b	-0.9731757
88	0xc0298aec	-2.649104
89	0xbebad1f8	-0.36488318
90	0xbdeb7c87	-0.11498361
91	0xbee7a343	-0.45241746
92	0x3f012520	0.50447273
93	0xc04a971f	-3.1654737
94	0xc064411e	-3.5664744
95	0x3f3e41fb	0.7431943
96	0x3f8508fb	1.0393366
97	0x3aa73fda	0.0012760118
98	0x3fb15391	1.3853627
99	0xbf53968a	-0.8265158
100	0xc0249a52	-2.571919
101	0xbff360b3	-1.9013885
102	0x3f10151c	0.5628221
103	0x3f5b7888	0.8573079
104	0xbfa4de12	-1.288027
105	0x3fa2ccbd	1.2718731
106	0xbf54ead5	-0.83170825
107	0xbf1553bb	-0.5833089
108	0xc0243fc8	-2.566393
109	0xbeae95e7	-0.3409874
110	0xbe6b2e7e	-0.22966954
111	0xc048def2	-3.1386075
112	0xbe7b0af5	-0.24515899
113	0x3f3430fb	0.7038724
114	0xbfefff48	-1.8749781
115	0x3e0e6d36	0.13908848
116	0x3f5e9e91	0.86960703
117	0xbee27eb7	-0.442373
118	0xbe2064df	-0.1566348
119	0x400375fb	2.054076
120	0xbf93de79	-1.1552268
121	0x3f491eb4	0.78562474
122	0x3f722d77	0.94600624
123	0xbe9db9d4	-0.30805838
124	0xbf12a9f8	-0.572906
125	0x3f3926ca	0.7232481
126	0xbf9506dc	-1.1642718
127	0xbe862e23	-0.26207075
128	0xbe6989f0	-0.22806525
129	0xc02a7636	-2.663465
130	0xbedb1fab	-0.42797598
131	0x3e2dc9f2	0.16971567
132	0xbe997b3a	-0.29976827
133	0xbfac77c4	-1.347405
134	0x3f2e1496	0.6800016
135	0x3cb19b73	0.02168057
136	0xbd91af23	-0.07113483
137	0x3f838830	1.0275936
138	0x3ea383af	0.31936404
139	0xbea96bd5	-0.33090082
140	0x3fa02923	1.2512554
141	0x3f2669bf	0.65005106
142	0x3f3f9331	0.7483397
143	0x3e1562fb	0.1458854
144	0x3fc1423e	1.509834
145	0xbe8eb157	-0.27869675
146	0x3f608a4c	0.87711024
147	0xbf1626a2	-0.586527
148	0x3f62d911	0.8861247
149	0xc0466ac5	-3.1002667
150	0xbf3e9a8b	-0.74454564
151	0xbed144f3	-0.40872917
152	0xbd75b99b	-0.05999146
153	0x3fa4b7b4	1.2868562
154	0x3e279e5c	0.16369003
155	0x3ee42959	0.44562796
156	0x3f72c4ec	0.9483173
157	0xbeb30b02	-0.34969336
158	0xc04b54f1	-3.1770594
159	0xc00c0488	-2.1877766
160	0x3f71faa2	0.9452306
161	0x3f056ca1	0.5211888
162	0x3c2a8648	0.010407992
163	0x40178784	2.3676462
164	0xbd4d8e46	-0.05018451
165	0xbee7f670	-0.45305204
166	0xbe49884f	-0.19680904
167	0xbc567054	-0.013088305
168	0x3c8a1edf	0.016860424
169	0x3f27ab1c	0.6549547
170	0xbd8e26be	-0.06940983
171	0xbe19c895	-0.15017922
172	0xbdbfee40	-0.093716145
173	0x3f920fb2	1.141104
174	0xbf8d6bd7	-1.1048535
175	0x3f496970	0.7867651
176	0xc0099c81	-2.1501772
177	0x3f04ab83	0.51824206
178	0x3f7cda80	0.98770905
179	0xbd407544	-0.046986833
180	0xc0439f5d	-3.0566018
181	0x3fb3809a	1.4023621
182	0x3f805eab	1.002889
183	0x3f98bb97	1.1932248
184	0xbecb1711	-0.39666036
185	0x3de401a8	0.111331284
186	0x3f9f5dbe	1.2450483
187	0x3f373abe	0.7157401
188	0xbf7878a5	-0.9705909
189	0xbf32bd4c	-0.69820094
190	0x3f51d27a	0.81961787
191	0xc042701b	-3.0380924
192	0x3d754a71	0.059885446
193	0x3d962c11	0.07332624
194	0xbcd09a18	-0.025464103
195	0xbeed9efa	-0.46410352
196	0x3fab6f12	1.3393271
197	0x3f4bfeef	0.7968587
198	0x3f8161ff	1.0108031
199	0x3fa28423	1.2696575
