checkpoints/single-phase/13bus/centralized/policy_net_checkpoint.pth (torch, 174130 bytes, 7 tensors)

controller.W.0 f4 [200, 5]
000000 3d f4 68 bf 49 d8 34 3f 66 85 04 40 95 c2 c8 bf
       -0.9099768 0.70642525 2.070642 -1.5684382
000010 b5 dc 8c bf 41 f2 af 3e 63 13 70 bf e3 d4 4a 3f
       -1.1004854 0.34364513 -0.9377958 0.7923109
000020 dc 9b 61 3f b0 96 68 bf 81 fb e0 bf 87 2e 37 be
       0.8812845 -0.9085493 -1.7576753 -0.17888843
000030 f5 e2 dd 3f 8a c6 17 3e 4b 57 3a 3f 19 22 9c 3d
       1.7334887 0.1482183 0.7278945 0.07623691
000040 6e b6 22 bf f9 fc 06 bf e4 f7 e6 3f e7 f4 a0 bf
       -0.63559616 -0.52729756 1.80444 -1.2574738
000050 86 4e 73 3f 5e b0 48 3d 6c f6 95 be 81 ac 59 3f
       0.9504169 0.04899632 -0.29289567 0.85028845
000060 d8 bd 97 3f 00 48 12 bf 1a 0e 49 3e e6 b2 d3 3f
       1.1854811 -0.57141113 0.19634286 1.653897
000070 fe 56 98 3e e5 41 d4 bf d9 0c 88 bf fd f9 62 bf
       0.2975387 -1.658261 -1.0628921 -0.886627
000080 f1 9d 8c 3e ce 88 d4 3e d7 d3 92 3f 04 94 7f be
       0.2746425 0.41510624 1.1470898 -0.24958807
000090 ea 8f 90 bd de 8f cf be da 40 2d 3f 72 67 73 bf
       -0.070586994 -0.4053945 0.6767708 -0.9507972
0000a0 4c d9 ac 3f 01 ae 6f bf 81 ff 51 3f fa 34 a5 be
       1.3503814 -0.93624884 0.82030493 -0.3226698
0000b0 70 e3 3c 3f 0d 63 1c 3f 7b aa 54 3f 22 13 fa be
       0.7378454 0.6108864 0.8307263 -0.48842722
0000c0 8f d1 84 bf 7a 89 4f 3f 97 ff 6f 3e 5a 8b 33 3f
       -1.0376452 0.8106915 0.23437344 0.7013451
0000d0 a7 92 71 bf e0 a0 ee 3f 2c 4a 74 3f 1e 29 2d 3f
       -0.943644 1.8642845 0.9542568 0.67640865
0000e0 9a d1 82 bf 4d 99 ae 3f 5f e8 0d c0 1a ca 82 3f
       -1.0220215 1.3640534 -2.2173078 1.0217927
0000f0 34 c9 8f bf 79 b3 e8 3e f9 7f a1 3e 13 57 96 3e
       -1.1233277 0.45449427 0.31542948 0.29363307
000100 13 03 b4 bf f4 40 92 bf 7c 7d bd be 3e e5 13 3e
       -1.4063438 -1.1426072 -0.370098 0.14442918
000110 48 9e 59 3f 63 28 9d 3f c2 7d ad 3f db 8e 90 bf
       0.85007143 1.227795 1.3554003 -1.1293596
000120 dc b1 ae bf f6 15 05 be ea 20 d4 be 52 d1 4e 3f
       -1.3648028 -0.12996659 -0.4143136 0.8078815
000130 94 5d b7 be 04 0b 4c bf 6a 7b e0 bf c4 24 3d 3f
       -0.35813582 -0.7970431 -1.7537663 0.73884225
000140 83 ea b9 3f 7b 8f 84 be 2d 78 9d bf 8d 93 e0 3f
       1.4524692 -0.25890717 -1.23023 1.7545029
000150 c2 b0 11 bf 22 f0 a3 bd 1e b7 4f bd e3 23 6c 3f
       -0.56910336 -0.08004786 -0.050711744 0.9224226
000160 fc 85 a3 bf b0 a1 8d 3e 56 05 aa 3e 83 05 8e 3f
       -1.2775264 0.2766242 0.33207196 1.1095432
000170 13 b7 77 bf 3f 00 41 3f f8 40 56 3f 61 10 f3 bf
       -0.96763724 0.75391 0.83692884 -1.8989373
000180 d8 3c 93 3f 6b b7 55 3f c4 5e 2b be 40 bd c6 3e
       1.1502943 0.83483 -0.16735369 0.3881626
000190 d5 8c b9 3f 03 24 d7 bf 24 4d f6 3e 5a a9 cb bf
       1.4496104 -1.6807865 0.4810573 -1.5911057
0001a0 5e dd 9e bc ce 4b 41 bf 92 07 36 bf 29 8b 16 3f
       -0.019392665 -0.75506294 -0.711053 0.5880609
0001b0 53 13 f4 3e 21 22 4a 3f 9d d5 ed 3f 84 79 37 bf
       0.47670993 0.78958327 1.8580815 -0.71669793
0001c0 10 eb f6 bf d7 bd 48 3f ea d2 89 bf 9f 9c 4b 3f
       -1.9290485 0.7841467 -1.0767491 0.7953586
0001d0 f1 2c 34 3f 21 7b e9 3d 5a 2b 11 3e 9e b5 e2 be
       0.70381075 0.11400438 0.14176694 -0.44279188
0001e0 d4 c4 d3 bd 9b a8 9a 3c fe 76 b3 3d 97 b0 fc 3d
       -0.10340276 0.018879225 0.0876293 0.12338369
0001f0 d3 7b 8d 3f 9e f1 09 bf 25 96 af 3e 78 15 1c 3e
       1.1053413 -0.53884304 0.3429424 0.15242565
000200 5e a9 e5 bf 94 86 f5 3e f8 d2 27 3f 42 25 71 3f
       -1.7942312 0.47954237 0.6555629 0.94197476
000210 fa b8 ff 3d 55 d5 fb be bb 00 d3 be be 90 e1 3f
       0.12486453 -0.49186197 -0.41211495 1.7622297
000220 8a 9a 85 bf d6 0c a4 bf 73 28 fd 3f 4b f6 2d bd
       -1.0437787 -1.2816417 1.9777969 -0.04247121
000230 61 fb 1e 3f a6 38 52 be 9f c6 2b bf 2b 79 9e be
       0.62102324 -0.20529422 -0.67099947 -0.3095182
000240 26 4c 25 3f ab db e8 3e fa bc b4 bb 80 ad f6 3d
       0.6456932 0.45480093 -0.005515692 0.12044811
000250 b9 45 12 c0 27 8e 20 3f 64 a0 64 be e6 54 b5 bf
       -2.2855055 0.6271691 -0.22326809 -1.4166534
000260 a4 f8 92 3f e9 ce 95 3d bf e4 03 bb e0 73 31 bf
       1.1482129 0.073148556 -0.0020125357 -0.69317436
000270 5f 2e 2f bf 5e 88 34 3f 00 f6 87 bf ad f3 f4 3e
       -0.6843013 0.7052058 -1.0621948 0.4784216
000280 cd c6 dd 3e 76 15 cd 3f 9e b5 92 bf 63 99 22 3f
       0.43315735 1.6022174 -1.1461675 0.635153
000290 f4 8b ac bf dc 71 4b 3f ac 8f 40 3f 0d e5 5f 3f
       -1.348021 0.7947061 0.75219226 0.8745888
0002a0 7d b2 11 3f 44 88 9a 3f fa 35 93 3f c8 d8 c0 be
       0.56912977 1.2072835 1.1500847 -0.3766539
0002b0 90 34 8a 3f e0 f4 21 bf 0b 77 ac bf 16 0f 69 3e
       1.0797291 -0.63264275 -1.3473829 0.22759661
0002c0 41 7c fd 3e 1e d3 18 3f 4a b3 e4 3e 9f 31 05 3e
       0.4950886 0.5969714 0.44668037 0.1300721
0002d0 2f f6 99 bf 66 97 09 be c4 a5 a1 bf 00 f2 73 3e
       -1.2028254 -0.1343666 -1.2628713 0.23822784
0002e0 ac fe 6d 3f 2d 50 78 3f 1a 51 1c 3e 8c 89 86 be
       0.92966723 0.9699734 0.15265313 -0.26276815
0002f0 7b d1 b4 be f3 74 70 3f 2d a7 c9 3e 40 83 29 3e
       -0.3531607 0.9392845 0.39385357 0.16553974
000300 e6 da 80 3f a5 fc 82 3e 33 9c 8e 3f 18 b0 89 bf
       1.0066803 0.25583377 1.1141418 -1.0756865
000310 f6 26 cb be c8 16 78 3f c9 ce 7d 3f 8b 07 10 3e
       -0.39678162 0.9690976 0.99143654 0.14065377
000320 1f aa ec 3d 0b da 05 bf 35 6f 46 3f 54 86 15 3f
       0.115558855 -0.5228583 0.7751344 0.58408093
000330 c5 68 cd bf 88 e7 9c 3e ce 1c ce 3e 79 ce 54 3f
       -1.6047598 0.30645394 0.4025635 0.8312755
000340 47 42 1a bf 7a 64 8a bf e8 46 f2 bd 1b 6e 54 be
       -0.6025738 -1.0811913 -0.118299305 -0.20745127
000350 a5 2a 9b bf 0a f7 df 3f d0 a7 7c bf 09 6d 40 3f
       -1.2122389 1.7497265 -0.9869356 0.75166374
000360 31 e1 b4 bf c1 00 5a 3f 01 a9 05 bf 26 20 7e bf
       -1.4131223 0.851574 -0.52211004 -0.99267805
000370 9d 6a b0 3f f7 42 ba 3f 50 6a ae bf 4a 29 ad bf
       1.3782536 1.4551686 -1.3626194 -1.3528225
000380 75 d0 c5 3f 42 08 ea 3d 1d e9 eb 3d bf a6 c0 3e
       1.5454241 0.11427356 0.11519072 0.37627217
000390 9b 3d b1 bc db 9f 3f 3f bc f9 8f 3f ee 8d be 3f
       -0.021635821 0.74853295 1.1248088 1.4887064
0003a0 00 74 6f bf 7a 4a c2 bf 59 c7 3f bf 62 61 13 3f
       -0.93536377 -1.5178978 -0.74913555 0.5757047
0003b0 98 e5 5d 3e e1 7e 76 3f a4 c8 4f 3f 62 92 a3 3e
       0.21669614 0.9628735 0.8116553 0.3194762
0003c0 03 b0 95 3d 45 8d 4b 3f ef 22 15 3c 6e 96 52 3f
       0.07308962 0.79512435 0.009102567 0.8226079
0003d0 b4 26 ef 3e b9 4b a8 bf fd 25 ad 3d 66 b9 6e 3f
       0.46709216 -1.3148109 0.08454511 0.93251646
0003e0 9b 03 42 bf a0 d4 d7 3e 0e 12 56 be a4 d9 6c 3f
       -0.7578675 0.42154408 -0.20905325 0.92519593
0003f0 4f df dc bf 69 e7 fd 3e 9a 97 39 bc 43 fe b4 3e
       -1.7255648 0.49590614 -0.011327649 0.35350236

controller.W.1 f4 [200, 5]
000000 22 7c fe 3e 92 5f e1 3e e6 ef a9 be 65 e8 fc bf
       0.4970408 0.44018227 -0.3319084 -1.9758421
000010 35 bd ff bf 4c b3 a8 bf 4b da a2 3f 9b 0e cf 3f
       -1.9979616 -1.3179717 1.2722868 1.6176332
000020 6e d5 de 3e f4 9f a9 3d ba 2f 89 3d 4a 60 89 3e
       0.4352221 0.08282462 0.06698556 0.26831275
000030 65 3c ad 3f 4a 3f 5e 3f b8 57 c9 3e 5c 39 2f bf
       1.3534056 0.8681532 0.39324737 -0.684469
000040 bf f5 dc 3e 61 f5 a5 3f a0 ad b2 3e ba c8 a3 3f
       0.4315624 1.2965509 0.3489809 1.2795632
000050 87 d0 36 be 25 23 c3 3f 28 2f 82 3e 9b 34 94 bf
       -0.17852984 1.52451 0.25426602 -1.1578554
000060 af ce 82 bf 0c c5 62 bf 6f 73 b8 3f 89 85 6a bf
       -1.0219325 -0.8858192 1.4410228 -0.9161001
000070 b4 f5 b7 3f 90 f8 31 be 96 3f d6 3e 2d 53 fd bf
       1.4371858 -0.17379975 0.41845387 -1.9791008
000080 b6 de cd bf 96 25 56 3e c2 9b 9a 3f 8f 55 b5 be
       -1.6083591 0.20912775 1.2078784 -0.3541684
000090 1a 70 b0 bf f1 a1 da bd 25 95 ca bf bb 8f 00 3f
       -1.3784211 -0.10675419 -1.5826765 0.50219315
0000a0 14 12 28 3d 2d 29 1f c0 75 40 0d bf 2b e5 bc bf
       0.041032866 -2.4868882 -0.5517648 -1.4757437
0000b0 75 12 b3 3d ac 6c 9b 3e f0 72 1c 3f cc 8e 7a bf
       0.08743755 0.30356348 0.6111288 -0.9787414
0000c0 15 8e e2 bf 3b de 95 3f 12 b7 75 3f 3d e2 d5 be
       -1.769961 1.1708444 0.9598247 -0.4177417
0000d0 39 4d b9 bf 04 a4 24 bf 72 c1 7a bf 8d b9 9b bf
       -1.4476691 -0.6431277 -0.97951424 -1.2166001
0000e0 75 7a ab 3f 80 2c 47 3f 8f ec 92 3e cd b1 fd be
       1.3396746 0.77802277 0.28696105 -0.49549714
0000f0 45 c6 fc be d0 88 16 3f f2 68 b9 3f 20 77 e7 3f
       -0.49370018 0.5880251 1.4485152 1.8083229
000100 5a 97 39 bf 1c 34 c6 bf c9 b7 89 3f 37 96 2f 3f
       -0.7249657 -1.5484653 1.0759212 0.68588585
000110 05 8c c0 3f c2 d8 92 3f 68 6d af 3f 51 2c 1f 3f
       1.504273 1.1472399 1.3705263 0.62176996
000120 8c 47 db 3f 4d 06 ec 3d 9f 86 ef be 65 86 1f bf
       1.7131209 0.11524639 -0.46782395 -0.62314445
000130 b1 63 b0 bc 16 95 66 3f 48 c6 1c c0 31 36 e9 bf
       -0.021531912 0.9007124 -2.4496021 -1.8219663
000140 6b eb ef bf 85 f3 58 be eb 4f d3 3e b0 05 02 c0
       -1.8743719 -0.21186645 0.4127191 -2.0315971
000150 0d e5 d5 bf 0c 57 69 be a8 8e d3 3f 4b 3f 53 3e
       -1.6710526 -0.22787112 1.652791 0.20629613
000160 5c fc 2a 3f f2 af 29 3f 97 4b 82 bf 79 6a f8 3f
       0.6679132 0.66284096 -1.0179318 1.9407493
000170 5b e0 bb be 81 53 15 40 e8 32 18 bd fa 42 a4 3e
       -0.36694607 2.3332217 -0.037157923 0.3208235
000180 99 29 86 3e fe 97 55 3e 8b 55 22 3f 8a b4 a8 3f
       0.26203611 0.20858762 0.6341178 1.3180096
000190 a2 8f 9e bf 3f 3b 65 3f 72 5e c6 3e 96 24 87 3f
       -1.2387583 0.8954353 0.3874393 1.055804
0001a0 36 18 c4 3f 02 97 72 3f 85 10 99 3e ee 2a ee 3f
       1.5319889 0.9476167 0.29895416 1.8606851
0001b0 d1 32 b6 3f f8 20 8b be a8 eb c6 3e a5 4e a7 3f
       1.4234258 -0.2717359 0.38851666 1.3070875
0001c0 e8 1d 53 bf 30 67 4d be 3e b0 9c 3f a3 a1 69 bf
       -0.8246751 -0.20058894 1.2241285 -0.91262263
0001d0 06 48 bb 3f 83 cd ac 3f a1 51 de 3f 99 be 8c 3f
       1.4631355 1.3500217 1.7368661 1.0995666
0001e0 bb 72 e5 3e 5a 17 71 3f 8a 59 36 3f f3 2d fc 3e
       0.44814095 0.94176257 0.71230376 0.49253806
0001f0 6c 5e 47 3e 88 3a fe bf fb 1d 5c bf aa f5 d5 3f
       0.19469613 -1.9861612 -0.85983247 1.6715596
000200 9c 7a f6 be eb 01 a1 3f f7 11 0f 3f 55 8c 8e 3f
       -0.4814042 1.257871 0.5588679 1.1136576
000210 a5 ce ee bd 1e 62 f7 3f 6f 81 42 bf 5e 0c 25 bd
       -0.11660508 1.9326818 -0.7597875 -0.040294997
000220 44 5d 0c 40 94 e2 c2 3f 63 3a 39 3f 00 83 0f bf
       2.1931925 1.5225396 0.72354716 -0.56059265
000230 84 68 88 3e 5b 5b 55 3f 55 0d b2 3f b6 22 c7 3d
       0.2664224 0.8334252 1.3910319 0.097234175
000240 49 ca 8a 3c 53 a0 56 bf 98 39 bf bd cc 48 00 40
       0.01694216 -0.83838385 -0.09337157 2.0044432
000250 9a 92 ab 3f 9f 0b d5 3f 76 2e 8a bf ca 98 f1 3f
       1.3404114 1.6644171 -1.0795429 1.8874753
000260 6a b4 90 3f 28 5f 17 40 b0 73 f1 3e 8a 8c 16 bf
       1.1305058 2.3651829 0.47158575 -0.58808196
000270 d9 e8 fd bf b9 d9 30 be 04 b0 65 c0 96 85 0a c0
       -1.9836684 -0.17270555 -3.5888681 -2.1644034
000280 8a 95 ba 3d 04 37 bb 3f 3a f9 72 bd af 1a ad 3f
       0.091105536 1.4626164 -0.059319712 1.3523768
000290 00 4c da 3d fd b2 2f 3f 5f 0f 37 3e 3b fa 19 3f
       0.10659027 0.6863249 0.17876957 0.60147446
0002a0 ca 31 dc 3f 6b 0f 09 be 7f b4 ca bf 2c 27 e3 be
       1.7202694 -0.13384788 -1.5836333 -0.44365823
0002b0 40 5f 91 3f fb f2 b8 bf ce 00 18 c0 c4 23 60 3f
       1.1357193 -1.4449152 -2.375049 0.87554574
0002c0 e7 77 0d c0 40 4d 2d 3e 53 1d 2b c0 be e0 53 3f
       -2.2104433 0.16924 -2.6736648 0.82764804
0002d0 9a 2e de be e7 db b0 be fa a5 df 3f e4 15 da 3f
       -0.4339493 -0.34542772 1.7472527 1.703793
0002e0 db 50 52 3f e1 17 bb be bb c0 91 bf 49 ee 21 bf
       0.82154626 -0.36541656 -1.1386942 -0.6325422
0002f0 19 c6 ad 3f e4 a2 d7 bf 07 6d c0 bf e9 ce 65 3f
       1.357608 -1.6846585 -1.5033273 0.89768845
000300 d0 1c 58 3f 49 bb 85 3f 18 e0 a1 3f 60 35 5b bf
       0.84418964 1.044778 1.2646513 -0.8562832
000310 ac a9 1e bf 3e c2 a0 be 54 be 62 bf e8 4a 97 bd
       -0.6197765 -0.31398195 -0.8857167 -0.07387334
000320 29 f0 4d 3f f9 e2 32 be ee 9c 85 3e 33 8e 6f 3f
       0.8044458 -0.17469396 0.2609629 0.93576354
000330 77 bf 80 3f 8d 97 f9 bf 92 10 94 bf 66 79 fe bd
       1.005843 -1.9499375 -1.1567557 -0.12425499
000340 ec 5b b8 bc e8 08 46 bf 67 08 34 3d 2f 74 42 3e
       -0.02250477 -0.7735734 0.043953326 0.18989633
000350 cd 9f b2 3f 4d 88 b7 3d 7f 9e 63 3f 10 93 88 3e
       1.3955017 0.08961544 0.8891372 0.266747
000360 5d 57 dd 3f dd d0 e1 ba b9 59 3e bb 7c 08 35 3f
       1.7292286 -0.0017228384 -0.0029045178 0.7071607
000370 17 b0 05 3f ef 4c 97 bf 7e 7d d5 bf 27 5b b4 3f
       0.52221817 -1.1820353 -1.6678922 1.4090317
000380 e8 aa 9c be 88 77 e3 3e e5 18 86 3f 59 b5 13 bf
       -0.3059914 0.44427133 1.0476347 -0.5769859
000390 75 dc 92 3f 19 5f 6b 3f d9 66 66 3f 4f ae 9b 3f
       1.1473528 0.9194198 0.90000683 1.216257
0003a0 83 79 2a 3f 9c ba 45 3d c1 7f 53 3f 01 66 d5 3c
       0.6659166 0.048273668 0.8261681 0.026049616
0003b0 6b 08 99 3f 71 c9 c0 3f 37 0e 81 3f a2 01 d4 3e
       1.1955694 1.5061475 1.0082463 0.41407496
0003c0 e2 f6 46 bf a7 d4 34 bf a9 f8 a3 3e 6f 12 d2 3f
       -0.77720463 -0.7063698 0.3202565 1.6411875
0003d0 e7 ac 1b bf 26 1e f1 3e 02 4f 74 3f 20 fa 4c bd
       -0.60810703 0.47093314 0.95433056 -0.050043225
0003e0 b5 5c aa 3f 1e 46 97 3e 9e 51 d0 be 29 ef 16 40
       1.3309542 0.29545683 -0.4068727 2.3583472
0003f0 ad de b3 bd 5e 3d 41 3f 5c 7b db 3f 0d 10 45 3f
       -0.087827064 0.75484264 1.7147021 0.76977617

controller.W.2 f4 [1, 5]
000000 cf 93 3c bf 2e 75 3c 3f d3 e2 4d 3f b3 c0 af 3f
       -0.7366304 0.736163 0.8042423 1.3730682
000010 0b a0 87 3f
       1.0595716

controller.U.0 f4 [200, 200]
000000 cc ec 7f 40 0b 8f 22 40 58 b6 06 40 6b 01 6a 40
       3.998828 2.5399806 2.1048794 3.6563365
000010 14 b1 a5 3e 42 50 74 40 7c a3 1b 40 47 01 45 40
       0.32361662 3.8173985 2.4318533 3.078203
000020 98 9d 99 3f c9 b3 b4 3f 03 3e ed bf 7c a5 83 40
       1.2001219 1.4117366 -1.853455 4.1139507
000030 84 f9 74 40 ad d4 8f 3f 50 1a 60 40 42 4b 6b 40
       3.8277292 1.1236778 3.501606 3.6764684
000040 26 f0 67 3f 44 64 ee 3f b3 f5 51 be 41 ea db 3f
       0.9060081 1.8624349 -0.20503883 1.7180864
000050 ec 79 92 40 78 fb 03 3f fb 96 76 40 dd 10 d4 3f
       4.577383 0.51555586 3.852965 1.6567646
000060 a7 52 35 3f 90 6c 5b 40 e5 07 ee 3f 0e 73 4c 3f
       0.7082924 3.4285011 1.8596159 0.7986306
000070 24 dd d1 3f 70 39 80 40 59 e5 66 40 65 ef 6d 40
       1.6395612 4.0070114 3.6077483 3.7177365
000080 9f c8 17 40 75 fe 3b bd 9a d0 6c 40 52 51 f4 3d
       2.37162 -0.045896966 3.700232 0.11929573
000090 7f f1 0c c0 e4 8d 95 3f a1 b8 3b 3e 35 91 d3 3e
       -2.2022398 1.1683927 0.18332149 0.41321722
0000a0 42 e5 6c 40 e4 34 10 40 ec 58 55 40 6a c3 8a 40
       3.7014928 2.2532282 3.3335524 4.3363543
0000b0 ee f4 38 3f ca 75 49 3f 6f 61 04 40 e8 31 63 3f
       0.72248733 0.78695357 2.0684469 0.88748026
0000c0 00 22 71 3f e6 b1 4c 40 2a ed 15 40 26 cc ab 3f
       0.94192505 3.198358 2.3426003 1.3421676
0000d0 1e 94 8f 40 6d 01 13 40 b7 20 eb 3f 23 b2 97 40
       4.4868307 2.296962 1.8369359 4.740495
0000e0 7b cf 45 40 a3 54 62 40 89 c7 19 c0 4f 08 1b 40
       3.0907886 3.5364158 -2.4028037 2.422382
0000f0 f0 d7 54 40 12 ed f5 3f f9 3c 81 40 9f 44 36 40
       3.3256798 1.9212973 4.038693 2.8479383
000100 a2 ca 32 40 cc 56 41 3f b6 a5 8b 3f d5 18 a1 3f
       2.7936177 0.75523067 1.0909946 1.2585703
000110 d6 d4 9b 40 25 88 21 3f 4f f6 99 40 b5 65 92 3f
       4.869731 0.63098365 4.811317 1.1437289
000120 3b 61 00 40 e0 15 7b 3f 2b 94 67 bd 96 6c b3 3f
       2.0059345 0.98080254 -0.05653779 1.4017513
000130 7f 71 09 40 19 e5 fe bf 67 7c 6d 40 46 38 10 3f
       2.1475523 -1.9913665 3.710718 0.56335866
000140 92 e6 1f 40 b3 d7 09 40 8b 6b fd 3f d3 18 6c 40
       2.498448 2.1537902 1.9798445 3.6890152
000150 72 13 cb 3f b9 74 11 40 29 fd ba 3f 63 b1 96 40
       1.5865309 2.2727492 1.4608508 4.7091537
000160 91 ef 82 40 1e 39 24 3f 66 5a 86 40 45 64 30 40
       4.091744 0.64149654 4.198535 2.75612
000170 17 37 85 40 34 15 8d 40 d3 ba 75 40 f5 e4 83 40
       4.162975 4.4088383 3.8395278 4.121699
000180 9d f0 28 3e c7 29 62 40 35 37 d8 3f 9c fd 93 3f
       0.16498037 3.5338 1.6891848 1.156177
000190 ef ad 72 40 03 6f 86 3f 9d 10 33 40 f1 d7 d1 3f
       3.791866 1.0502628 2.797889 1.6394025
0001a0 fe f5 d3 3f 57 b7 95 40 6d ae 72 40 c1 d9 96 40
       1.6559446 4.6786304 3.791896 4.7140813
0001b0 30 11 f0 3f f2 bb 6d 40 ca 64 c9 3f c8 c3 7f 3f
       1.8755245 3.7145963 1.5733883 0.99908113
0001c0 d0 bc 17 40 34 5f c7 3f 38 a4 de 3f ef 14 b4 bd
       2.3708992 1.5575929 1.7393866 -0.08793055
0001d0 23 5b 3c 40 9a 4d 23 40 54 cc 9e be eb 03 14 3e
       2.9430625 2.5516114 -0.31015265 0.1445462
0001e0 b8 cf 85 3f 84 72 d5 3f 41 29 47 bf d6 81 7b bf
       1.0454016 1.6675572 -0.77797323 -0.9824499
0001f0 a8 f6 21 40 7f 59 20 3f 2c a2 72 3f aa 32 c1 3e
       2.5306797 0.6263656 0.94778705 0.37733966
000200 20 27 01 40 ff 87 3e 40 8c 83 00 40 80 c5 97 be
       2.018013 2.9770505 2.008029 -0.29642868
000210 2e f3 d3 3f 74 5f da 3f 18 1e f7 3f ad 5b 78 40
       1.6558588 1.706038 1.9306059 3.8805954
000220 a2 31 8c 40 a7 99 41 3e bb 2e 0c 40 31 75 8a 40
       4.3810587 0.1890627 2.1903522 4.3268056
000230 1e c5 2e 40 1b e4 80 40 73 14 01 40 1e eb 65 40
       2.730781 4.027845 2.0168731 3.5924754
000240 6b 21 97 bf a1 b8 48 40 66 6c 81 3e 2a ed 19 3f
       -1.1807073 3.1362689 0.25278014 0.6012751
000250 5d a2 44 40 dd cf d8 3f b2 e3 69 3f a4 eb 68 40
       3.0724099 1.6938435 0.9136306 3.6393824
000260 68 52 c4 3f ab 05 4e 40 3e 27 27 3f 70 a0 60 3f
       1.5337648 3.219096 0.65294254 0.8774481
000270 6a 59 d6 3f 57 af 02 3f a7 28 db bf 4d 93 27 3f
       1.6746037 0.510488 -1.7121781 0.6545914
000280 be 03 89 40 01 52 85 40 cd 62 5a 40 33 63 5a 40
       4.281707 4.1662602 3.4122803 3.4123046
000290 fb f6 68 40 80 09 ee 3e c5 07 68 40 5c f7 22 40
       3.6400745 0.46491623 3.6254742 2.5463476
0002a0 e4 93 5f 40 eb 3e 1b 40 34 86 2c 3e 78 8e 33 40
       3.4934015 2.4257152 0.1684807 2.8055706
0002b0 4e 23 8e 40 9e f7 26 40 29 d7 d9 3f 62 91 9b 40
       4.4418097 2.6088634 1.7018787 4.861497
0002c0 a4 a5 a0 40 b9 5d 86 40 04 46 4b 40 2c eb 1d bc
       5.02022 4.1989408 3.1761484 -0.009638589
0002d0 4f c6 3a 40 ed 7f 42 40 c7 f0 2e 40 6a 74 40 40
       2.9183538 3.039058 2.733446 3.0071054
0002e0 00 fe 8e 3f 73 bf 13 c0 6d 02 d8 3d f1 f1 57 3f
       1.1171265 -2.3085601 0.10547338 0.8435355
0002f0 d0 f8 22 3f b6 a3 aa 3f d7 36 7f 40 27 e4 e3 3e
       0.6366091 1.3331211 3.9877222 0.44510004
000300 e7 e9 23 40 e8 40 41 40 5f d9 bf 3e a2 14 12 3f
       2.5611513 3.0195866 0.37470528 0.57062733
000310 85 bd 1f 40 44 af 0f c0 f0 00 42 3f 91 a4 21 40
       2.4959424 -2.2450724 0.7578268 2.5256693
000320 22 17 b2 3e fb ec 18 bf e1 a7 3c 40 3d 1b 4d be
       0.34783274 -0.59736603 2.9477465 -0.20029922
000330 59 13 1f bf ed c8 89 3e 6a ec 0e 3e 4f c9 7b bf
       -0.621389 0.26911107 0.13957372 -0.9835405
000340 d9 bd 89 bf 60 55 68 bf 73 9e 10 3f 13 ae d8 bf
       -1.0761062 -0.9075527 0.56491774 -1.6928123
000350 72 2b b1 bd e7 2a 99 3f 1a 25 9b c0 56 b0 81 c0
       -0.08650865 1.1966218 -4.848279 -4.0527754
000360 3a c7 70 bf c2 da 99 3e fc d3 bc 3e e2 df 2e 40
       -0.94053996 0.3004971 0.3688048 2.7324147
000370 fb f4 af c0 4d c3 85 be e9 ff d1 bf d3 1f 6a bf
       -5.498655 -0.26125565 -1.6406223 -0.9145481
000380 4b 73 e6 be 28 6a 0b bf df e5 9c bf 6e 6b b9 bf
       -0.45009837 -0.54458857 -1.2257651 -1.448591
000390 93 b1 ae bf 22 75 4a c0 4d f1 6d bf 0b 15 4c bf
       -1.3647941 -3.1633992 -0.9294632 -0.7971961
0003a0 59 74 40 bf 97 2a bb be 77 c3 4b c0 c9 4f c9 be
       -0.7517753 -0.3655593 -3.1838052 -0.39318684
0003b0 3a 9e 0e 40 23 0f 95 bf ac 8a bf be 3a ae 84 3f
       2.2284074 -1.1645244 -0.37410486 1.036567
0003c0 e1 b6 39 bf fd f4 9c bf 0c af 90 bf 12 ad 2b c0
       -0.72544676 -1.2262264 -1.130342 -2.6824384
0003d0 5c 1c 37 bf 30 f8 ea be 97 90 4c c0 ca 40 f5 be
       -0.7152765 -0.45892477 -3.196325 -0.47900993
0003e0 8f aa de be 30 39 6c 3f 62 fa 3a bf 79 19 11 bf
       -0.434895 0.9227476 -0.73038304 -0.56679493
0003f0 b4 56 ac bf a9 b5 45 bd b8 40 98 bf 28 b3 72 c0
       -1.346396 -0.048268948 -1.189475 -3.7921848

controller.U.1 f4 [1, 200]
000000 b2 81 32 40 8d c3 68 40 f6 ee 82 3f 8d c9 81 3f
       2.789166 3.6369355 1.0229175 1.0139633
000010 19 51 13 40 04 cf 3e 40 27 f2 2e 40 ad 3c 56 40
       2.3018248 2.9813852 2.7335298 3.3474534
000020 50 c0 71 40 bf 50 d9 3f 75 cf f3 3f dc 3d 19 40
       3.7773628 1.6977767 1.9047686 2.3944006
000030 5b a4 d4 3f 82 67 a9 3f 16 d5 b0 3f 93 53 4a 40
       1.6612657 1.3234713 1.3815029 3.161351
000040 e7 0e 79 40 7d a6 98 3f af ac 24 40 f9 03 4f 3f
       3.8915346 1.1925808 2.5730398 0.80865437
000050 ff 07 04 40 60 eb 0f 40 2e a0 5c 3f 7a de 7f 3f
       2.062988 2.2487411 0.86181915 0.9994885
000060 78 5d 52 3f 03 6d fa 3f 0b a9 da 3f 01 8c 0c 40
       0.8217387 1.9564518 1.7082838 2.1960452
000070 9b 97 52 3f 50 67 fd 3f ef 94 20 40 59 a0 9a 40
       0.8226258 1.9797153 2.5090902 4.8320737
000080 95 c7 91 3f eb 71 ef 3f 78 2d 31 40 c6 a7 21 40
       1.1389033 1.870664 2.7684002 2.525865
000090 53 c5 fc 3f 59 47 39 40 85 c2 a2 3f 4b 9b 33 40
       1.9747719 2.8949797 1.2715613 2.8063533
0000a0 eb 46 bd 3f 3b b8 86 40 5c 17 70 3f 12 5c 66 3f
       1.4787267 4.209989 0.93785644 0.8998424
0000b0 52 3f f3 3f 33 42 48 3f 71 93 16 40 f9 aa 43 40
       1.9003699 0.7822601 2.352749 3.0573103
0000c0 c1 b8 cd 3f 2d 1e 7f 3f 30 89 3e 40 82 1e 07 40
       1.6072007 0.9965542 2.9771233 2.111237
0000d0 f3 5d 1e 40 3d fe bd 3f 3b a5 42 40 13 41 59 40
       2.4744842 1.4843212 3.0413349 3.3945968
0000e0 43 21 4d 3f ec 74 93 3f 3f dc 10 3f fb ea 82 40
       0.8012888 1.1520057 0.5658607 4.091184
0000f0 9e 1e e4 3f 8d 90 0a 40 72 7a c7 3f 81 3d 2c 3f
       1.7821844 2.1650727 1.5584242 0.6728135
000100 b5 bc 1d 40 16 5d 86 3f 7b e9 55 40 46 eb 46 40
       2.4646428 1.0497158 3.3423755 3.10811
000110 12 47 1b 40 3d 72 93 3f 4d 0d bb 3f b9 7b 30 40
       2.4262128 1.1519238 1.4613434 2.7575514
000120 d2 5a c7 3f 8e 45 da 3f 0b 4d 2a 40 77 51 1d 40
       1.5574591 1.7052476 2.6609523 2.4580972
000130 3e 2a 7c 40 4a f7 10 40 fb 4a 03 40 98 2e 17 40
       3.9400783 2.2650933 2.0514514 2.3622189
000140 01 11 39 40 ee 79 4c 3f 66 3f 43 40 0c 7f ad 3f
       2.8916628 0.7987355 3.0507445 1.3554397
000150 71 41 84 40 89 f5 0c 40 0e 24 3a 40 09 97 70 3f
       4.1329885 2.2024863 2.9084506 0.9398046
000160 59 aa d6 3e b9 c3 14 40 d8 20 e8 3f f1 18 5b 3f
       0.4192684 2.324446 1.8135023 0.8558493
000170 25 cd 4b 40 92 ee b5 3f 5d 33 d1 3f a0 dd 05 40
       3.184396 1.4213431 1.63438 2.091652
000180 0a 4d 35 40 ce e7 22 3f 8c 0c 28 40 86 83 48 3f
       2.832827 0.63634956 2.6257658 0.7832569
000190 d5 8b a6 3f df 16 47 3f 4e 46 f6 3f 89 32 78 40
       1.3011423 0.77769274 1.9240205 3.8780844
0001a0 03 ab a3 3f ef 20 a3 40 fb c7 a5 3f e8 20 3d 3f
       1.2786564 5.09777 1.2951654 0.73878336
0001b0 b6 ab 6a 3f 93 f7 99 3f 20 6a f5 3f f6 d8 1e 40
       0.9166826 1.2028679 1.9173012 2.4819922
0001c0 4a 29 ae 3f f5 2a e7 3f af 41 61 3f 4c 06 5e 3f
       1.360635 1.8059984 0.8799085 0.8672836
0001d0 1a 2d 24 40 9e 44 bf 3f a3 46 f8 3f e2 1c 6e 40
       2.5652528 1.4942815 1.9396557 3.7205129
0001e0 3d 1e 37 3f 18 f8 84 40 9e 12 4c 40 62 40 cd 3f
       0.71530515 4.155285 3.1886363 1.6035273
0001f0 7e bd a4 3f 6c 47 14 40 2a 74 90 3f 52 da 91 3f
       1.2870328 2.3168592 1.128545 1.1394751
000200 01 f7 d9 3f 30 df 8c 3f 71 8f 18 40 46 f0 fc 3f
       1.7028505 1.1005611 2.383755 1.9760826
000210 c2 7d 2f 40 b5 ad a5 3f d1 4e 17 40 5c 22 01 40
       2.7420506 1.2943636 2.3641856 2.0177221
000220 47 63 98 3f 8c a0 14 40 70 f3 35 40 dc 07 0a 40
       1.1905297 2.322299 2.8429832 2.1567297
000230 0b 37 40 40 bd 04 5e 40 7c 14 4f 40 e8 c4 6b 3f
       3.0033596 3.4690392 3.2356253 0.9209733
000240 8b 4f 3c 40 ba fe f1 3f 53 4b 30 40 e7 95 ab 3f
       2.942355 1.8905861 2.7545974 1.3405122
000250 d5 3a 2e 40 3e a4 1a 40 ae 07 bf 3f 51 18 84 3f
       2.7223408 2.4162745 1.4924219 1.0319921
000260 6c 78 40 3f dc ac 0e 40 c3 39 d0 3f d7 64 06 40
       0.7518375 2.2293005 1.6267627 2.0999048
000270 69 db 38 40 9b 7d 1f 3f b9 3b eb 3f f7 e4 fe 3e
       2.8883917 0.62301034 1.8377601 0.4978406
000280 a2 0b 1c 40 ea 98 14 40 35 eb 97 3f 98 b9 6b 40
       2.43821 2.3218331 1.1868654 3.6832027
000290 f1 a4 30 40 a7 f9 d0 3f ee 77 16 40 bf 05 1e 40
       2.7600672 1.6326188 2.35107 2.4691007
0002a0 3b 23 0d 40 91 f2 3f 40 9b 8b 13 40 c3 a5 29 40
       2.2052753 2.99918 2.3053958 2.6507423
0002b0 4c 52 ee 3f b7 c1 9b 40 01 be a0 3f ca b7 30 40
       1.8618865 4.867397 1.2557985 2.7612176
0002c0 4b d2 98 3f 09 46 72 40 f2 c5 dd 3f e5 f7 19 40
       1.1939176 3.7855246 1.7326033 2.4057553
0002d0 f1 d3 6d 3f c9 dd 29 40 b7 b1 21 40 25 3e 15 40
       0.9290152 2.6541617 2.5264719 2.331918
0002e0 c7 a0 a9 3f 72 19 1a 40 13 34 0d 40 95 bd 0b 40
       1.325219 2.407803 2.2063034 2.1834462
0002f0 c0 4f bd 3f 9b dc 87 3f 59 a4 1d 40 db 1a af 3f
       1.4789963 1.0614198 2.463156 1.3680071
000300 e8 7f fe 3f bd 24 38 40 22 ce b7 3f 3d b8 cd 3f
       1.9882784 2.8772423 1.4359782 1.607185
000310 69 24 0b 40 af 9e 07 40 c9 8b 69 40 a0 f6 50 40
       2.1740973 2.1190603 3.6491568 3.2650528

controller.bias.0 f4 [200]
000000 de 48 21 40 b9 95 a7 3f 51 6c 69 3f 9c 89 d9 3f
       2.5200725 1.3092567 0.911809 1.699512
000010 ca ec f4 3f 71 89 be 3f 50 bc e1 3f b3 64 2d 40
       1.9134762 1.4885694 1.7635593 2.7092712
000020 82 d7 a3 3e 00 d9 0a 40 1c da 35 bf b3 85 c5 3f
       0.32000357 2.1694946 -0.71035933 1.5431427
000030 7c ad 55 40 63 07 82 3f 36 2e 5c 40 c1 92 3f 40
       3.3387136 1.0158504 3.4403205 2.9933321
000040 8e 37 62 3f 19 2a 52 bf 0e da bc 3e e0 10 ac 3f
       0.8836602 -0.82095486 0.36885113 1.344265
000050 f2 77 34 40 55 eb 20 40 71 4c 0d 40 ad c4 18 40
       2.819821 2.5143635 2.2077906 2.3870041
000060 41 36 08 40 d8 c1 47 40 f7 a8 1e 40 49 a6 fd 3e
       2.1283114 3.1212063 2.4790628 0.49540928
000070 55 2f 18 40 2a 3d 2b 40 7c 8e fe 3f c7 d8 3e 40
       2.377889 2.6756082 1.9887233 2.981981
000080 00 1b 99 3f bd 92 b4 3f a9 8f b2 3f a3 e2 88 3f
       1.1961365 1.4107281 1.3950092 1.0694164
000090 6d 1a 87 bf 9a f1 0b 40 4e 24 d4 3f 29 74 75 3f
       -1.055494 2.1866212 1.6573579 0.9588037
0000a0 61 2e 0d 40 e3 c9 1e 40 fc 6c fd 3f d3 62 3a 40
       2.2059557 2.4810722 1.9798884 2.9122818
0000b0 26 21 00 3f 5a 2d 01 40 54 b8 36 3f 90 d1 0f 40
       0.5005058 2.018393 0.7137501 2.2471657
0000c0 8d ed fa 3f fc 3b 12 40 0f 07 12 40 8a b5 e6 3f
       1.9603745 2.2849112 2.2816808 1.8024151
0000d0 5d 73 5a 40 96 4f 9d 3f 58 63 24 40 52 91 0a 40
       3.4132912 1.2289913 2.5685635 2.1651196
0000e0 96 d8 05 40 cb 96 3e 40 6b 2c de bd 77 70 1e 40
       2.0913444 2.9779537 -0.10848316 2.4756143
0000f0 5a 3d e3 3f ca a5 04 40 d8 79 41 40 24 25 cd 3f
       1.7753098 2.072619 3.0230618 1.602696
000100 6e 57 3d 40 d5 58 3c 3e c2 1e 12 40 42 33 11 40
       2.9584613 0.18393262 2.2831273 2.2687535
000110 dc 4e 0c 40 71 34 10 40 0f c8 1c 40 68 ac 2e 3f
       2.1923132 2.2532008 2.4497106 0.6823182
000120 29 b6 48 3f cd 42 59 3f 89 38 02 3f d6 b9 18 40
       0.78402954 0.84867555 0.50867516 2.3863425
000130 ed 20 d0 3f f0 6f 74 bf 72 3b 51 40 6d 7d b5 3f
       1.6260048 -0.95483303 3.2692533 1.4178902
000140 79 4a f3 3f d5 84 70 3f c4 ba 99 3f f6 c4 51 40
       1.9007102 0.93952686 1.2010121 3.2776465
000150 0c 05 fb 3f 15 30 1b 40 1e 11 dc 3f 55 8c 1a 40
       1.9610915 2.4248097 1.7192724 2.4148152
000160 1d d2 f9 3f 74 b4 14 40 4d e9 05 40 6b f8 09 40
       1.9517246 2.323514 2.0923645 2.1557872
000170 55 51 c2 3f 7e a2 ab 3f 07 76 15 40 8b b1 23 40
       1.518107 1.3408964 2.3353288 2.5577114
000180 36 63 64 3d 95 a7 b1 3f f8 1a 10 40 7f 46 0f 40
       0.055758677 1.3879267 2.251646 2.2386777
000190 f0 2f 55 40 d6 ec f2 3f b1 9a b5 3f 9d 1e 13 40
       3.3310509 1.8978527 1.4187833 2.2987435
0001a0 8b ce ca 3e de 18 29 40 5e f9 0d 40 06 84 0b 40
       0.39610705 2.6421428 2.2183452 2.179933
0001b0 db b4 09 40 10 69 6f 40 31 f7 1a 40 f6 90 f5 3f
       2.1516635 3.7407875 2.4213374 1.9184864
0001c0 18 38 1c 3f cb 04 89 3f 0f 5e c2 3f b4 2b ff 3f
       0.6102309 1.0704588 1.5184954 1.9935212
0001d0 29 0d d5 3f 19 8d b5 3f 52 42 d9 3f 3f 9b 47 3f
       1.6644641 1.4183685 1.6973364 0.7797126
0001e0 ea 1a 61 3f 1c 88 32 3e 4b bb cc be c6 da b1 bf
       0.8793169 0.17434734 -0.39986643 -1.3894889
0001f0 38 b2 21 40 61 00 f1 3f ef 90 d6 3e 56 54 1a 40
       2.5265026 1.8828241 0.4190745 2.4113975
000200 7e 3d 87 3f 11 8d 3d 40 8c 5b a3 3f d6 56 0e 3f
       1.0565641 2.961735 1.2762313 0.5560125
000210 41 88 19 40 42 96 64 3f 51 27 73 3f 1d 22 23 40
       2.3989413 0.89291775 0.9498187 2.548957
000220 c4 f3 66 40 71 70 fb 3f 2d 45 ac 3f 03 88 0c 40
       3.6086283 1.9643689 1.3458611 2.1958015
000230 28 bc 04 40 b1 0d cc 3f e9 69 6a 3f ac 5b 00 40
       2.0739841 1.5941678 0.91567856 2.0055952
000240 47 39 03 3f ec c8 26 40 7c 80 da 3f 42 39 46 3f
       0.51259273 2.6060133 1.707046 0.7743112
000250 bc 4d 21 40 0f 0d 20 40 fb 1e 83 3f 69 db f4 3f
       2.5203695 2.500797 1.024383 1.9129459
000260 69 ee b3 3f 8c 09 11 40 09 8c 92 3d 14 87 33 3f
       1.4057132 2.2662077 0.07155616 0.7012799
000270 5a 6b 02 40 19 63 00 40 b5 54 82 bf 35 59 20 40
       2.0378022 2.0060484 -1.01821 2.5054448
000280 81 ad 22 40 e7 ba 51 40 17 fe 1c 40 3e 21 0a 40
       2.5418398 3.2770326 2.4530084 2.158279
000290 ff b5 1a 40 fb eb 88 bf b8 5e 56 40 92 ec fa 3f
       2.4173582 -1.0697016 3.3495312 1.9603446
0002a0 db 7e 79 40 04 fd cc 3f 6e 3d 00 3e d0 c9 10 40
       3.8983676 1.6014714 0.12523434 2.2623177
0002b0 a5 0d 33 40 10 0f de 3f 52 e5 1a 40 1e bc 24 40
       2.7977078 1.7348347 2.4202466 2.5739818
0002c0 9c 79 12 40 ad 17 0c 40 fa b2 c2 3f 8d 88 cc 3f
       2.2886724 2.188945 1.5210869 1.5979172
0002d0 8f 7f d5 3f da 98 02 40 5b 98 1c 40 03 a7 01 40
       1.6679553 2.0405793 2.446799 2.0258186
0002e0 2d 87 94 3f d9 2f 10 c0 cd b9 b7 3f ac 52 67 3f
       1.1603752 -2.2529204 1.4353577 0.9036052
0002f0 6c f9 c1 bf ea 72 13 40 e2 29 1f 40 1e 95 19 40
       -1.5154243 2.3038888 2.4869313 2.3997264
000300 9c db 21 40 90 75 2b 40 0e c2 0f 40 50 aa d5 3f
       2.529029 2.6790504 2.2462192 1.66926
000310 88 56 e3 3f 92 b2 f2 be b4 1e ad bf a6 6b 8f 3f
       1.7760782 -0.47401863 -1.3524995 1.1204727

controller.bias.1 f4 [200]
000000 55 66 0e 40 15 04 3b c0 22 72 ac bf a5 e1 7c be
       2.2249959 -2.9221241 -1.347233 -0.24695452
000010 65 91 c5 3e 9a ab 34 3f d4 6b 31 3f b1 3e 10 40
       0.3858749 0.70574343 0.6930516 2.2538264
000020 57 f0 80 40 f1 15 8a be 7e b2 26 40 f5 a7 69 c0
       4.0293384 -0.26969865 2.6046443 -3.6508763
000030 f5 cd a2 bf 7d e1 e5 bd 36 fb 4d bd 37 48 94 3f
       -1.2719103 -0.11224649 -0.0502884 1.1584538
000040 6d 0f c2 3f 0d b6 90 bf c4 3e 96 3c 6d 03 0b bf
       1.5160958 -1.1305557 0.018340476 -0.543021
000050 7d a8 da bd c2 c4 ac 3c 34 1a 8f be 16 81 00 bf
       -0.10676668 0.021089915 -0.2794968 -0.5019697
000060 e5 68 81 bf 05 78 bf 3f 03 aa 96 bd 55 a8 ad bd
       -1.0110136 1.4958502 -0.07356646 -0.084793724
000070 8c 5e 96 bf d5 fb b4 bd 05 6e df be 24 ec 19 40
       -1.1747603 -0.08837096 -0.43638626 2.4050379
000080 68 fb cc bf 9a eb ae 3d 32 38 4d 3f 12 f4 28 40
       -1.6014223 0.08541031 0.8016387 2.6398969
000090 27 b6 9d 3e 47 b7 e2 3f 77 c3 47 3e e2 a4 70 40
       0.30803034 1.7712182 0.19508158 3.7600636
0000a0 fd 7e 1a 3c 96 1a 89 40 51 a7 ad be 50 c0 00 bf
       0.00942969 4.2844954 -0.33916715 -0.50293446
0000b0 7a b9 fd 3e fe e6 29 bf df 91 d6 3d 13 dd 5c 3e
       0.4955557 -0.6636809 0.104770415 0.21568708
0000c0 ee e3 d8 3f d9 d6 e4 bf eb 2e 78 be 6f 1d 83 be
       1.6944559 -1.7878066 -0.24236648 -0.25608394
0000d0 22 3d 23 3f ce 74 5b bf a3 ea 0d 40 2f 8e 7a 40
       0.63765156 -0.85725105 2.217446 3.9149282
0000e0 57 c6 f6 be 41 a6 aa bf 4a e1 7f bf bb e9 5a 3f
       -0.48198196 -1.3331987 -0.9995314 0.85512894
0000f0 06 a9 45 be 78 32 fd 3d 54 1b b2 3e c2 9a d7 3c
       -0.19302759 0.12363142 0.34786475 0.026318911
000100 60 16 69 c0 2b 15 07 bf 59 10 94 3f 07 db 7c 40
       -3.6419907 -0.52766675 1.1567489 3.9508684
000110 68 d5 79 3f 04 29 19 bf a6 58 a3 bf 02 f9 a1 3f
       0.9759126 -0.5982821 -1.2761428 1.2654116
000120 a9 cd 4c 3e 50 15 0d bf 4c 4d 4b 40 44 e8 07 40
       0.20000328 -0.55110645 3.1765928 2.1235514
000130 9b 6b 87 40 27 05 79 be cd 84 04 40 1b 3e 8a 3f
       4.2318854 -0.24318372 2.0706055 1.0800203
000140 d8 e7 33 3f 14 bb eb be a3 16 17 40 aa 96 d9 3d
       0.7027564 -0.46041167 2.3607566 0.1062444
000150 a2 79 7a 40 04 a4 4e 3f 86 9b ed 3f 9e 90 cb bf
       3.9136739 0.8071902 1.8563087 -1.5903509
000160 9a b8 55 c0 f8 d1 ba be 40 0e c5 3d 18 bb 80 be
       -3.3393922 -0.36488318 0.096218586 -0.2514274
000170 df 51 ac 3e d5 b4 3c c0 51 ab 80 c0 54 0a f9 3f
       0.33656213 -2.948537 -4.0209126 1.9456277
000180 b8 f9 4d 40 1d cc ea 3d 4f a6 66 40 b4 8d e6 bf
       3.2183666 0.11464713 3.6039007 -1.8011994
000190 ab f3 90 bf 9f a4 95 bf 2c 00 88 3f 34 e1 bb 3f
       -1.1324362 -1.1690863 1.0625052 1.4678102
0001a0 85 0a 62 3e a9 18 bd 3f 45 a1 a5 be 38 8a be be
       0.22074325 1.4773151 -0.323496 -0.37214828
0001b0 30 fa b4 bf 51 68 f9 be ea 15 af be 02 a6 40 c0
       -1.4138851 -0.487124 -0.34196407 -3.0101323
0001c0 20 5c 4d 3c a1 22 3a 3f a4 fc 90 bf c4 a8 fd 3d
       0.012534171 0.7270909 -1.13271 0.12385705
0001d0 73 7b 31 40 27 9b 69 be 09 eb 65 bf bb ab 89 40
       2.7731597 -0.22813092 -0.8981176 4.302213
0001e0 14 de f5 be 6b ed a7 3f 7a df 83 3f 7a 75 7e bd
       -0.48020995 1.3119329 1.0302575 -0.062123753
0001f0 b5 1a 36 bd 80 1d fe 3e fb 3a be bf 92 e3 f1 3e
       -0.044459064 0.49631882 -1.486175 0.47243935
000200 ae 73 a9 be d8 46 a7 bf f8 67 7d 3d 97 30 44 3d
       -0.3309607 -1.3068495 0.06186673 0.0478979
000210 3a 7b 99 be 6d ea 11 3e 6b 50 40 40 27 eb 6c 3e
       -0.29976827 0.14249583 3.0049083 0.23136579
000220 fc 8e 6f be f4 0d 5c 40 62 d7 19 3f d6 ce ec bf
       -0.23394388 3.4383516 0.60094273 -1.8500621
000230 86 e6 48 40 74 db 24 3f 12 fb 48 3f 8c c2 5e bd
       3.13907 0.6439736 0.785081 -0.054384753
000240 94 22 67 40 72 b5 cb bb 78 19 0e 40 3f d0 6b bd
       3.6114855 -0.0062166983 2.2203045 -0.057571646
000250 03 b5 b9 3f 3a 29 42 c0 32 c5 04 c0 a4 fc ed be
       1.4508365 -3.0337663 -2.0745358 -0.46481812
000260 f7 d0 7c be 3b ef 5c 40 0d 73 94 3f d6 c5 15 3f
       -0.24689089 3.4521015 1.1597611 0.58505
000270 b4 92 1c 40 29 3e d8 be 12 e7 4e c0 f3 70 24 c0
       2.446454 -0.42234924 -3.2328534 -2.5693939
000280 0e 7b a2 3f 79 31 06 3f 38 45 06 3f 53 35 92 40
       1.2693803 0.5241924 0.5244937 4.5690093
000290 d4 02 5e be fc 66 e2 bf 4c e2 0d be ab c7 13 bf
       -0.21680766 -1.7687678 -0.13855857 -0.57726544
0002a0 aa 23 6d 3f 0d 73 32 3f 39 9d 07 3d 9b df 94 3a
       0.92632544 0.69706804 0.033108924 0.0011358144
0002b0 7a 22 ea be c2 c1 87 3f 36 83 01 c0 66 82 15 40
       -0.4572943 1.0606005 -2.0236335 2.336084
0002c0 d6 35 ce be 39 69 34 3f c9 4f 4b 40 5e ac 08 3e
       -0.4027545 0.7047306 3.1767447 0.13347003
0002d0 7a 7c fe bf a2 ac 55 40 15 bd 0b 40 1e 5c 3e 40
       -1.9881737 3.3386617 2.1834157 2.9743724
0002e0 af bf f8 bf 08 b1 dd be b6 71 2e 40 2a 42 a3 3f
       -1.9433497 -0.43299127 2.7256904 1.2754567
0002f0 ab 2c f5 bf d1 26 20 bf 31 a3 ff 3f 43 f4 3d c0
       -1.9154257 -0.6255923 1.9971677 -2.9680336
000300 59 b1 5f bf 57 0e 84 3f 31 3b 1b 3f 95 17 bb be
       -0.87379986 1.0316876 0.60637194 -0.3654143
000310 d5 a6 50 40 76 70 e6 3f ec df 8e 3f d4 53 4d 40
       3.2601826 1.800307 1.1162086 3.2082415
