checkpoints/single-phase/13bus/centralized/value_net_checkpoint.pth (torch, 173130 bytes, 5 tensors)

linear1.weight f4 [200, 10]
000000 83 d0 7c 3c aa 30 89 3e 17 21 31 3f 61 d9 21 3f
       0.015430572 0.2679494 0.69191116 0.6322232
000010 43 f0 1c 3f 00 3b af 3e 42 ed 38 be 04 0f 25 3d
       0.6130411 0.342247 -0.18059257 0.040297523
000020 a5 91 8c bc 18 f4 95 3e 48 bc fc 3e 7c 3b 03 3f
       -0.017159292 0.2928779 0.49362397 0.5126264
000030 d0 db 70 3e 27 6e ec 3e 92 10 0f 3f 5b 41 ab bd
       0.23521352 0.4617779 0.5588466 -0.08362075
000040 b0 c9 f0 3e 2f 49 23 3e 84 e1 07 3e fb 95 20 be
       0.47028875 0.15945886 0.13269621 -0.15682213
000050 b9 b5 50 be 28 89 85 be 63 3b 13 be 08 b7 96 bc
       -0.20381822 -0.26081204 -0.14378123 -0.018397823
000060 e7 6b 2a be e7 e4 f8 bd c6 e1 47 3e c2 d5 53 be
       -0.16642724 -0.12153035 0.1951972 -0.20687011
000070 7d fa 0f 3e b8 d4 4c be d8 d9 eb 3e 58 31 11 3f
       0.14060397 -0.20003021 0.4606464 0.5671592
000080 d7 4a d1 3d b4 38 ca 3e e0 85 10 3f 0a 05 60 3e
       0.10219353 0.39496386 0.5645428 0.21876922
000090 77 00 89 3e 5f 5d a2 bd 23 94 79 bd af 9c 69 3e
       0.26758167 -0.079279654 -0.06093229 0.22813676
0000a0 8c bf de bd 71 66 06 bf e1 23 76 bd 65 a7 ef be
       -0.108763784 -0.52500063 -0.06009281 -0.468074
0000b0 d2 ad c5 bd b6 0c 80 bc b3 e2 06 3e cc 04 5d bc
       -0.09652294 -0.015631061 0.13172416 -0.013489913
0000c0 94 ea 10 be ac d9 2d be a3 15 b1 bd 91 18 fe 3e
       -0.14151984 -0.16977566 -0.08646705 0.49628118
0000d0 9f 24 1a 3f f8 61 ab 3e b1 b7 11 3f 30 d1 aa 3e
       0.6021213 0.33473182 0.56920916 0.33362722
0000e0 f5 03 0a bf 3b 10 fd be 98 63 53 be b4 7c 92 be
       -0.5391229 -0.49426445 -0.20643461 -0.28610766
0000f0 f5 d9 d5 3e 9b 9b 14 bf e6 98 97 be 37 03 1b bf
       0.4176785 -0.58049935 -0.2960884 -0.6055178
000100 31 ba f4 be 4d 76 7f bd 6a 20 51 bd 25 3e b7 3b
       -0.47798303 -0.06236868 -0.051056303 0.005592125
000110 76 21 f9 bc 25 37 54 bd 9e 55 04 3c bf 7a 22 3f
       -0.030411463 -0.051810402 0.008077053 0.63468546
000120 08 79 06 3f 2c 6e f9 3e 1c e5 11 3f bf 17 05 be
       0.5252843 0.48716867 0.5699022 -0.1299734
000130 d4 76 4e bc 02 b0 18 3e 55 d8 a0 3d 50 1c 4e 3e
       -0.012601573 0.14910892 0.07853762 0.20127988
000140 57 6d b6 bd e2 19 63 be 15 92 ea bd 4f 28 c5 bd
       -0.08907574 -0.22177842 -0.11453644 -0.09626829
000150 20 e3 da be 06 ee b2 bd cd 9f 0a be 05 9c 98 3c
       -0.42751408 -0.087368056 -0.13537522 0.018629083
000160 10 1d 9c 3d 6d ec 58 3d 60 c3 24 3e 57 4b 98 bd
       0.07622731 0.05295985 0.16090155 -0.07436245
000170 37 ab 5b be 21 40 df bd 89 f3 19 bf dc ce 08 bd
       -0.21452032 -0.109009035 -0.6013723 -0.0334004
000180 2b d4 e6 bc 4a 27 ce 3d 23 09 06 bd ca d0 a4 bd
       -0.028177341 0.100660875 -0.032723557 -0.08047636
000190 fd cb 8c 3e 08 4a 2d bf 33 d8 29 bd f9 7b 0b bf
       0.2749938 -0.6769109 -0.04146595 -0.5448604
0001a0 cc e3 1c bf 89 40 85 bd a7 f6 95 3a 1b 9b 57 bd
       -0.6128509 -0.0650645 0.0011441306 -0.052638154
0001b0 67 8d 07 bd fc 1a f4 bc c0 59 45 3e 75 13 20 3f
       -0.033093836 -0.029798023 0.19272518 0.6252969
0001c0 35 b5 1c 3f ec 0a bb 3e 36 a5 27 3f 31 2d 9e bd
       0.61214 0.3653177 0.65486467 -0.07723463
0001d0 0b 16 2d 3e 92 50 56 bd c5 5a d5 3d 2d 11 4c 3e
       0.1690294 -0.05232293 0.104177035 0.19928427
0001e0 d9 46 e9 3e d7 94 26 bf 0a 55 09 bf b0 bd 18 bf
       0.45561865 -0.6507086 -0.53645384 -0.5966444
0001f0 b7 e3 ae be bc 39 62 be a1 57 3a 3d d6 9a 9e be
       -0.34158108 -0.22092336 0.045493726 -0.30977505
000200 be 96 af 3c 51 cc c4 bd e9 e8 35 3b d3 9d 87 3e
       0.021434184 -0.09609283 0.0027757233 0.26487598
000210 7b 8a 4a bd 0a 8d 62 be e5 ba 8b 3e 13 f5 09 3e
       -0.04944847 -0.22124115 0.27291027 0.13472395
000220 bf 26 8e be 9a 07 02 3f 94 c9 73 3e 41 d4 ca 3e
       -0.27763936 0.5079285 0.23807365 0.39615062
000230 6a 93 f4 3d fe 81 35 bf c7 5f d3 be ce 50 ab be
       0.119421795 -0.7090148 -0.4128401 -0.33460087
000240 a5 2a 51 be d1 f6 84 bc 47 86 cf bd 4f 9b 43 3d
       -0.20426424 -0.016230972 -0.10133033 0.047755536
000250 d3 81 1c bd 49 b8 a1 bd ac 2b 62 be 92 81 72 bd
       -0.038209748 -0.07896478 -0.22086972 -0.0592056
000260 07 f8 99 be 07 6f 55 be 98 f3 5a be d7 af fc bd
       -0.30072042 -0.20843135 -0.21381986 -0.12338226
000270 07 61 28 bb 00 40 03 3e 2f ad 04 3e 69 49 76 be
       -0.0025692598 0.12817383 0.1295669 -0.24051441
000280 6c 6f f0 bd 72 b5 76 bd 48 65 a9 bd 0b aa 48 be
       -0.11740002 -0.060231633 -0.08271271 -0.19596116
000290 ac 37 32 3e da 3e a1 3e 3e 67 86 3c 05 8e da 3d
       0.1740405 0.31493264 0.016406652 0.10671619
0002a0 18 99 8b be 61 c4 cb bc 7b 0a 4c be 72 1d 80 bd
       -0.2726524 -0.024873914 -0.19925873 -0.06255616
0002b0 4d 9e 66 be 36 28 87 3e d8 39 0e 3e 5e 36 84 be
       -0.22521324 0.26397866 0.13889253 -0.2582273
0002c0 ac cb 1b be dd 1d 81 3d 3c e3 13 3e 59 70 9c bd
       -0.15214413 0.06304524 0.14442152 -0.07638616
0002d0 a1 ca 3f be 7c 5e 3e 3e 4e b2 fd 3c 34 33 40 be
       -0.1872964 0.1859073 0.030968811 -0.18769532
0002e0 79 e4 37 3d f6 08 cc bd ba 01 d9 3d 07 95 ff 3c
       0.044895623 -0.09962647 0.105960324 0.031198991
0002f0 b5 1f cf 3d f4 9f 11 be b0 0a f4 bd 33 29 a4 3c
       0.101134695 -0.14221174 -0.11916101 0.020039177
000300 e9 ed a6 3d d1 96 2d be 5d 1a a1 bc 20 e6 ec bd
       0.081508465 -0.16952063 -0.019665891 -0.1156733
000310 67 0f c3 3e d0 8f 63 be cf 0e c8 3d 10 bf 0f 3d
       0.3809769 -0.22222829 0.097684495 0.03509432
000320 14 71 b4 3e 06 8b 20 3f 66 86 f9 3e 5a 71 f4 3e
       0.35242522 0.6271213 0.4873535 0.4774273
000330 ae 6c 1a 3f 0f bb 43 3d 3a e4 18 be eb 08 26 be
       0.6032208 0.047785815 -0.14930812 -0.1621434
000340 d2 66 67 3e 87 83 0c be 5e 7d 8d 3e 00 c2 84 be
       0.22597817 -0.13722049 0.2763471 -0.2592926
000350 94 fe e4 bd 2a ce 03 bd 0c f8 0b 3c be 28 8d 3d
       -0.111813694 -0.032179035 0.008543026 0.068925366
000360 71 ac ac 3e 89 5d d0 3e 81 38 25 3e 57 ce 1c bd
       0.33725312 0.40696362 0.16134836 -0.03828272
000370 f1 5c e9 3e 12 70 32 3f 94 b6 19 3f 67 78 df 3e
       0.4557872 0.69702256 0.6004422 0.43646547
000380 1d bc 01 3f 46 f2 33 3d b5 be 3a 3d d7 c2 96 bc
       0.50677663 0.04393222 0.04559203 -0.018403454
000390 5d f3 b1 3d d9 d1 85 3e 50 c2 49 3e e5 b7 78 be
       0.08688996 0.26136664 0.1970303 -0.242889
0003a0 d6 ab f0 be fc 3b a7 be c0 13 cf bd 1c 34 c3 bd
       -0.470061 -0.32662952 -0.10111189 -0.095314234
0003b0 60 29 0e 3f 98 74 ac be 1b fe 75 be 34 de a1 be
       0.55531883 -0.33682704 -0.24022715 -0.3161484
0003c0 5f ad 8b 3e 14 14 79 3e 0f 67 90 be e3 dc 8b 3d
       0.2728071 0.24324065 -0.28203627 0.0682924
0003d0 bc 57 9d be 9b f7 91 3c 2f 91 da bc 5c e5 a1 3e
       -0.30731 0.017818263 -0.026680557 0.316203
0003e0 f1 f6 c9 3d 96 6e 37 3e 69 68 d4 3e 7e ab 11 3f
       0.098615535 0.17913279 0.4148591 0.569023
0003f0 0b 43 75 3e 60 85 16 3f 67 91 20 3f 48 5f 0c 3d
       0.23951356 0.58797264 0.62721866 0.034270555

linear1.bias f4 [200]
000000 0b 70 46 bf 05 ce 0b bf c6 41 4d 3f 2c e5 47 bf
       -0.77514714 -0.54611236 0.8017849 -0.78084064
000010 9b bb 9b 3f 40 34 19 bf 6a c2 9a 3f 07 40 93 be
       1.2166628 -0.5984535 1.209058 -0.28759786
000020 6f 23 76 3f e5 29 54 3f c1 19 a3 3f e4 7e 24 bf
       0.9614782 0.82876426 1.2742234 -0.6425612
000030 b7 0b aa 3f 07 be 3e 3f 30 d4 9b 3f f1 c1 80 3f
       1.3284825 0.7450871 1.217413 1.0059186
000040 2e 40 74 be 8a 3b 3e be 82 34 86 bd 40 d6 84 3f
       -0.23852608 -0.185774 -0.06552984 1.0377884
000050 bd 7a 20 bf ca a7 61 3f 7c bc 44 bf c1 6d 66 3f
       -0.62687284 0.8814665 -0.76850104 0.9001122
000060 3f 28 74 be 6f 83 da be ab 10 a4 3f b3 10 93 be
       -0.23843478 -0.426784 1.2817587 -0.28723678
000070 ff 4e 84 3c 01 47 04 bf 81 6f 15 3f 2c ae 73 be
       0.01615095 -0.51670843 0.58373266 -0.2379691
000080 35 72 85 3f 99 78 9e 3f bc aa 9a 3f 16 6b c8 3e
       1.0425478 1.2380553 1.2083354 0.391442
000090 b9 f4 45 3e a4 7f 53 bf 98 4d a1 3f 83 61 2d be
       0.19331636 -0.8261664 1.2601805 -0.16931729
0000a0 94 3a d4 3e 46 c2 fb be cb 32 54 bf cd 23 98 3f
       0.41450942 -0.49171656 -0.82890004 1.1885926
0000b0 7e f3 ca bd c6 21 94 3f e2 03 3c 3f 0a 8e d4 bd
       -0.09909724 1.1572807 0.73443425 -0.10378654
0000c0 ce 6d 1d bf ce 22 b0 3f 99 7f 91 3f df ce 9d 3f
       -0.61495674 1.3760622 1.1367065 1.2328757
0000d0 66 2f 38 be 92 47 99 3f 58 31 58 3f 3a 7b 95 be
       -0.17986831 1.1974967 0.8445029 -0.29195577
0000e0 4e 1f 29 be cd f7 d0 be 42 59 f2 bd cc a6 44 be
       -0.16515848 -0.40814057 -0.11833431 -0.19204253
0000f0 3d f1 8b 3f 17 57 a0 3f c0 b3 45 be e3 cf 82 3f
       1.0932995 1.2526578 -0.1930685 1.0219692
000100 f1 48 57 3f e5 25 9f 3f d4 8e 21 be 23 27 58 3e
       0.84095675 1.243344 -0.15777141 0.2110868
000110 0a 2e 98 be 85 69 89 3f 95 29 84 3f 0a 95 05 bf
       -0.29722625 1.0735327 1.032519 -0.5218054
000120 b4 21 84 be 55 37 89 3d 8e fe 06 be 87 63 06 3f
       -0.25806963 0.06700007 -0.13183042 0.52495617
000130 56 23 9c 3f 65 5a 7f 3f d7 4a 8a be 86 60 87 3f
       1.2198284 0.99747306 -0.27010223 1.0576332
000140 f3 e9 7c 3f 8a 6e 74 bf f5 c2 25 3f 80 a0 86 3f
       0.9879448 -0.9548117 0.64750606 1.0517731
000150 39 06 6c 3f ec 6c 9f bd b7 af 63 be 64 cc f3 3e
       0.92196995 -0.07784447 -0.22234999 0.47616875
000160 b8 12 55 bf a0 1c d8 bd 0d 75 7c be 0a 04 06 3f
       -0.8323169 -0.10552335 -0.24654026 0.52349913
000170 e9 61 a0 be fb c5 91 3f ed 6b 4d 3f c5 21 84 3f
       -0.313247 1.1388544 0.80242807 1.0322806
000180 ca 59 4e be f0 02 77 be 50 64 6a 3f 7f ae 80 3f
       -0.2015144 -0.24122214 0.91559315 1.0053252
000190 c4 73 12 3d 40 1c 9a 3f 01 51 83 3f 7f 60 45 bf
       0.035754934 1.2039871 1.0259095 -0.77100366
0001a0 d6 91 27 3d 84 46 d0 be 12 a1 84 3f c7 e3 bc 3d
       0.040910564 -0.406788 1.0361655 0.092231326
0001b0 61 d2 91 3f 38 43 9f 3f 2c 0a 95 3f fc 3e bd bd
       1.1392328 1.2442389 1.1643729 -0.09240529
0001c0 15 4e 3d 3e d3 f1 71 be 43 51 36 3e 5a 06 a6 3f
       0.18486817 -0.23627405 0.17804436 1.2970688
0001d0 8f 02 49 3e 97 03 8b 3f 42 f2 60 3f 03 78 00 be
       0.19629882 1.086047 0.87869656 -0.12545781
0001e0 ed cd 86 3f 31 83 fa be 29 da 88 3f b9 e8 8a 3f
       1.0531594 -0.48928216 1.0691577 1.0852271
0001f0 e9 5e 87 be 0b 7d 65 3f eb 3c 84 3f c1 b9 a0 be
       -0.26439598 0.89643925 1.0331091 -0.3139172
000200 a5 2b 8d 3f 7e 5c 8a 3f d3 80 36 be 52 58 9b be
       1.1028944 1.0809476 -0.1782258 -0.3034082
000210 24 49 8c be 2c f5 79 3f 1c 60 b7 3d cd 02 9b 3f
       -0.27399552 0.9763973 0.08953878 1.211023
000220 15 9e 99 be 88 7f bd bd d6 df af bd d6 f2 5a be
       -0.3000342 -0.0925284 -0.08587615 -0.21381697
000230 2d ab 7f 3f bd c3 5d 3a 6e 8d 39 3e f7 2e 1e bf
       0.9987057 0.0008459648 0.18120357 -0.6179041
000240 76 2a 8b 3f 38 b3 8b be df b2 56 3f 45 42 09 be
       1.0872333 -0.2728517 0.83866686 -0.13404186
000250 32 a4 cd 3d e7 46 12 bc 94 e4 96 3f 47 9b 69 3f
       0.100410834 -0.008928037 1.1788507 0.9125256
000260 ea 81 48 bf bf 80 8d 3f cd 26 13 bd 09 c8 90 3f
       -0.78323233 1.1054915 -0.035925675 1.1311046
000270 df 27 3c 3f 55 fe 93 3f 48 da 92 3f 6d 97 3a bf
       0.7349834 1.1561991 1.1472864 -0.7288731
000280 67 1b 82 3f 39 6e 26 3f 8a 6a 57 bf 10 6d 06 bf
       1.0164613 0.65011936 -0.8414694 -0.52510166
000290 8a 03 97 3f f9 d7 56 bd cd 8b 88 3f 0c 04 9c 3f
       1.1797955 -0.05245206 1.0667664 1.2188735
0002a0 89 78 53 bf 64 f6 75 3f 65 e5 85 3f 47 d5 8c 3f
       -0.826058 0.9607909 1.0460631 1.1002587
0002b0 b6 35 7a 3f f0 55 8d 3f 1f bb 45 bf 94 fc 29 bc
       0.97738206 1.1041851 -0.7723865 -0.010375161
0002c0 4a 85 5c bf d3 ff 9e 3f df d6 93 3f fe 78 8b 3f
       -0.8614088 1.2421821 1.1549948 1.0896299
0002d0 f5 f8 85 3f 90 02 70 3f a2 b3 85 3f 83 69 2c bf
       1.0466601 0.9375391 1.0445445 -0.673485
0002e0 1a a3 3a 3f f4 a6 7c 3f a7 41 9b 3f c9 48 58 3f
       0.72905123 0.9869225 1.212941 0.8448606
0002f0 64 89 a4 3f 46 10 66 be de b5 48 3f 3c 1a 55 3f
       1.2854428 -0.22467145 0.7840251 0.83243155
000300 30 10 20 be e1 b0 13 be 84 de 99 be 91 ba 80 3f
       -0.15631175 -0.14422943 -0.30052578 1.0056936
000310 17 94 84 bd e1 60 9a 3f ec 62 99 3f 92 5c 84 bf
       -0.064735584 1.2060815 1.1983314 -1.034075

linear2.weight f4 [200, 200]
000000 8c fc b0 bf 05 b5 45 bf 7c 7b 05 40 27 54 a2 bf
       -1.3827071 -0.7722934 2.085662 -1.2681931
000010 b0 6e 4f 40 93 71 5f bf a6 52 db 40 b1 db 14 bf
       3.2411308 -0.87282676 6.853839 -0.5814772
000020 07 c5 29 40 85 35 3b 40 88 f5 d0 40 80 da 71 bf
       2.6526506 2.9251416 6.529972 -0.9447403
000030 f6 60 86 40 ab cc a2 3c 1e ab be 40 6c 9a 42 40
       4.199336 0.019872984 5.9583883 3.0406752
000040 08 36 ba ba fd 6e 23 3d f4 a6 c7 3b 17 9b bc 3e
       -0.0014206776 0.03990077 0.0060929004 0.36837074
000050 a1 a3 4a bf ad db 5a 3f 69 e1 84 bf 0a 1e fb 3f
       -0.7915593 0.8549145 -1.038129 1.9618542
000060 fa e9 9c 3c 20 7f 2c bf 42 97 fa 3f 56 76 ef be
       0.019154537 -0.6738148 1.957741 -0.4676997
000070 70 4d 2e bd 22 8e 24 bf 55 87 b6 3f fb d0 c8 3c
       -0.04255432 -0.6427938 1.426005 0.024513712
000080 c6 e2 43 3f 68 8c 9e 3f 0b 35 54 40 68 72 55 40
       0.76517904 1.2386599 3.3157375 3.3351078
000090 21 01 66 bf 02 f1 8b bf bf f1 12 40 2b f7 6e bc
       -0.8984547 -1.0932925 2.296005 -0.014585297
0000a0 6b de 6c 40 94 db 6d bf 92 39 b5 bf 12 52 c7 40
       3.7010753 -0.92913175 -1.4158194 6.2287683
0000b0 f2 2c e4 3c 58 6d f3 3f 82 8e 49 40 fa 53 80 bd
       0.027853463 1.9017744 3.149323 -0.06266017
0000c0 ba 44 a0 bf 19 b5 bb 40 6e f6 06 40 34 73 03 40
       -1.2520974 5.8658566 2.1087909 2.0539064
0000d0 30 5b 66 bd 34 fe 93 3f 08 b8 22 3f ff fc 54 bd
       -0.056239307 1.1561952 0.6356206 -0.05199909
0000e0 02 44 56 bd df cb 42 bf 92 2d c4 3c e9 0b 68 bd
       -0.05231095 -0.7609233 0.02394751 -0.056651983
0000f0 d0 d0 3f 40 cc e1 67 40 1c 46 00 bd 6b a8 4b 3f
       2.99712 3.6231565 -0.03131686 0.7955386
000100 94 37 53 3f f7 53 11 40 ab c7 c4 3c b7 65 bd bc
       0.8250668 2.2707498 0.02402099 -0.02311979
000110 6a b7 e2 3c 8a 3b 82 40 62 38 90 3f 65 48 80 bf
       0.02767535 4.069768 1.1267207 -1.0022093
000120 59 80 4e bd 4d 95 88 ba 71 03 34 bd 73 4e cd bd
       -0.05041537 -0.0010420472 -0.043948594 -0.100247286
000130 87 b6 aa 40 8f d2 05 40 e6 e1 88 3d d2 ae 94 40
       5.334781 2.0909765 0.06683712 4.6463404
000140 da 63 14 3f 4a 7e 9a bf e6 1e ef 3d f5 d2 c9 3f
       0.5796486 -1.206979 0.11675815 1.5767504
000150 61 a4 61 40 0f 94 e5 bf 3b bd 0e bd f5 b5 2b c0
       3.525658 -1.7935809 -0.034848433 -2.6829808
000160 13 de c8 bf 88 ea ae bf c8 4a fe 3c 78 34 25 40
       -1.5692772 -1.3665323 0.031041518 2.5813274
000170 3e 62 97 bc 34 d3 6a 3f ba 98 5c 3f 09 54 34 3f
       -0.018479463 0.9172852 0.8617054 0.7044073
000180 24 a7 25 bd c7 b1 58 bd b4 9b c8 3f a0 8c 52 3f
       -0.0404426 -0.052903917 1.5672517 0.82245827
000190 75 87 97 bc 01 76 c1 3f 35 f8 6c 3f 51 36 a0 bf
       -0.018497208 1.5114137 0.92566234 -1.2516576
0001a0 70 55 40 bc 34 04 82 bf 14 27 90 3f d2 49 1a c0
       -0.01173912 -1.0157533 1.1261926 -2.4107556
0001b0 07 58 93 3f a2 50 06 40 85 5c 01 3f 79 7c 26 bd
       1.1511239 2.0986714 0.505318 -0.04064605
0001c0 94 3d af be f3 a2 f0 3c 7f 43 8b bc cf 93 d4 40
       -0.34226668 0.029374575 -0.016999958 6.643043
0001d0 42 10 5d 3d 0a 4d ed 3e 00 ad ea 3e 8a 10 62 3d
       0.053970583 0.4634784 0.45835114 0.055191554
0001e0 25 26 43 3f 87 3e 36 bf 09 d8 de 3f 56 9a 6d 3f
       0.7623008 -0.7118916 1.7409679 0.9281362
0001f0 2f 80 40 3c 9d e6 b0 3f cc 91 57 40 d3 66 2d 3d
       0.011749311 1.3820378 3.3682737 0.04233439
000200 b5 36 c3 40 56 a6 52 3f fa de 45 bd 1d 9a 4f 3d
       6.100428 0.8228506 -0.04830835 0.050684083
000210 b6 30 d7 3b a0 fa 9c 3f d8 12 4e 3d 3d 86 5d 40
       0.006567086 1.2263985 0.05031094 3.4613183
000220 54 79 19 3c d3 7b 95 bc 57 84 89 3d 0e df 1b 3d
       0.009367306 -0.01824752 0.06714695 0.03805452
000230 74 2b ed 3f 90 fb 56 3d 53 08 ef bf 43 74 76 bf
       1.8528886 0.052486002 -1.8674415 -0.9627115
000240 f3 9a 28 3f 98 e9 f9 3c 50 9e a8 3e 75 8d cd 3c
       0.65861434 0.030506894 0.32933283 0.025091866
000250 2d a3 85 3d 7e 38 55 bd 7f 31 a8 3f 93 e0 c0 3f
       0.06525264 -0.05205583 1.3140105 1.5068535
000260 f3 56 9b bf 6a 97 bc 3f 54 0e c8 3f 1b ce d3 40
       -1.213591 1.4733708 1.5629373 6.6189094
000270 f2 30 95 3d a3 c0 53 40 63 c9 3f 3f d9 76 89 bf
       0.07284726 3.3086326 0.74916667 -1.0739394
000280 a8 6e 42 40 c7 69 0f 40 dc 71 b9 bf e5 a2 bf be
       3.038004 2.2408311 -1.4487872 -0.37428966
000290 31 99 d9 3f 53 ca ca 3f f5 9a 2e 3f eb 0b 3b 40
       1.6999875 1.5842994 0.68205196 2.9226024
0002a0 11 06 98 bf 82 6e fe 3f 78 c9 5f 40 14 c6 3e 3f
       -1.1876851 1.9877474 3.4966717 0.74520993
0002b0 7c 9f b2 3f ac 60 bf 3f 5e 16 be bf e0 87 68 3d
       1.3954921 1.4951377 -1.4850576 0.056770205
0002c0 c2 d1 e2 bf 28 10 97 40 64 ea 1a 40 ef 29 80 3f
       -1.7720263 4.720722 2.420556 1.0012797
0002d0 6e 9a 4c 40 ff f2 4c 3f 0d 79 84 3f ce ba 8e bf
       3.1969256 0.8005828 1.0349442 -1.1150758
0002e0 47 ac 78 3f a4 53 89 3f 09 06 9d 40 c6 19 09 40
       0.97137874 1.072865 4.9069867 2.142198
0002f0 60 98 9e 40 4d 38 06 3b ba 67 52 3f 44 f8 f7 3e
       4.9561005 0.0020480335 0.82189524 0.484316
000300 fa 41 dd 3f b2 9b 8d 3d 12 f5 be bc 65 db be 3f
       1.728576 0.06914462 -0.023310218 1.4910704
000310 71 4c 61 3c ea bd 44 3f 82 4e 43 40 76 ae d0 bf
       0.013751135 0.76852286 3.0516667 -1.6303241
000320 15 40 1f bf 59 ba 6d be 5c 3b 9b 3f bb 93 22 bf
       -0.62207156 -0.23215617 1.212749 -0.6350667
000330 4b 7f 2c 40 9d d9 02 bf 36 c7 d8 40 c1 42 2f be
       2.6952693 -0.511133 6.7743177 -0.17115308
000340 78 b9 fc 3f 23 e1 e4 3f 6f a3 cf 40 65 68 ca be
       1.97441 1.7881206 6.4887004 -0.39532772
000350 df b3 62 40 48 04 0f 3f 44 bb b7 40 75 12 e3 3f
       3.5422285 0.5586591 5.7416096 1.7740008
000360 2e 89 a3 3c b5 d7 89 3c d6 1e c7 bb 06 5d 8c 3e
       0.019962873 0.01682649 -0.006076674 0.2741472
000370 47 ae bd be f1 3b 54 3f 7c 91 ca be e3 eb a9 3f
       -0.37047026 0.82903963 -0.3956412 1.3275112
000380 c2 f3 87 3d 50 36 32 be 65 58 e9 3f e3 05 fc 3e
       0.0663829 -0.17403531 1.8230101 0.4922324
000390 56 8f 7d 3d fc 75 84 be af 4d 6c 3f d9 95 86 bd
       0.061904274 -0.25871265 0.92306036 -0.0657155
0003a0 9a d1 1b 3f 30 ac 98 3f 08 58 31 40 2a 15 48 3f
       0.608667 1.1927547 2.770998 0.78157294
0003b0 57 9c a8 be 33 ac 3f bf 87 e6 c5 3f d6 bb 49 bd
       -0.32931778 -0.7487213 1.5460976 -0.0492514
0003c0 76 08 89 3f 21 84 9e be 04 81 33 bf ca 92 c0 40
       1.0705707 -0.3096018 -0.7011874 6.0179186
0003d0 e0 28 86 3d 3d 41 b4 3f 2a cc 27 40 1b 28 be bc
       0.06550765 1.4082409 2.6218362 -0.023212483
0003e0 2d 6b d4 be cd a2 b4 40 94 e7 a6 3f c0 7e b8 3f
       -0.4148802 5.644873 1.3039422 1.4413681
0003f0 30 da 41 bd e2 c5 83 3f 6c 8a 2a 3f b4 0b 4b bc
       -0.04732722 1.0294764 0.66617465 -0.012392927

linear2.bias f4 [200]
000000 40 c9 02 3f 54 e2 2f 3f 28 7a 23 3d 37 85 16 3f
       0.51088333 0.68704724 0.03991142 0.5879702
000010 51 5f 32 3f 2d d2 b9 3d 69 3c 37 3f 1f b9 46 3f
       0.6967669 0.09073291 0.71576554 0.7762622
000020 72 88 47 3f 62 96 bc 3d 33 09 47 3c 6c 2d a0 3c
       0.77942574 0.09208371 0.012148189 0.019552909
000030 62 17 21 bd 7d dd 4d 3f 4b ea 3c 3f 70 1e f2 bb
       -0.03932894 0.8041609 0.73795 -0.0073888823
000040 af 1c f1 bb 04 a5 81 3c 3b b8 ae 3c 7c a6 4a 3d
       -0.0073581557 0.015825756 0.021328082 0.049475178
000050 8c 07 15 3f 09 04 54 3d 7d e4 1b 3f 27 d6 30 3f
       0.5821464 0.05176166 0.6089552 0.6907677
000060 87 c6 94 bc 68 b3 2b 3f 5d 2f bb 3e af 00 4c bc
       -0.018161071 0.6707063 0.36559573 -0.012451335
000070 21 53 00 3f d9 b5 bf 3b 64 9b 22 3f c6 e7 3a 3f
       0.50126845 0.0058505354 0.6351836 0.7300991
000080 01 a8 30 bd 9a 8a 18 3f 72 a2 98 3d 18 db 2c 3f
       -0.04312897 0.5958649 0.07452859 0.6752181
000090 94 95 6b 3b 76 fb 02 3f 9a f7 45 3f 3a 63 3b 3f
       0.003594731 0.5116495 0.77330935 0.7319828
0000a0 5a 22 4d 3f 4f 8e 4d 3f 77 25 57 bd 9f 20 43 3f
       0.8013054 0.8029527 -0.052525964 0.7622165
0000b0 68 a7 bb bc 1d 48 32 bd 91 2e 3e 3f 70 43 5a 3f
       -0.022906974 -0.043525804 0.74289805 0.8525915
0000c0 ff 9f 4c 3f 7b 47 8d bd b3 7d 50 3f c9 b2 19 bd
       0.79931635 -0.068983994 0.814418 -0.03752402
0000d0 53 24 3d 3f 9a b4 31 3d 16 a9 2b 3f 66 6b 18 3b
       0.7388355 0.043385126 0.6705488 0.0023257374
0000e0 07 58 ab bc 04 dc 3b 3f e1 04 26 3f 33 59 d9 3d
       -0.020915998 0.7338259 0.64851195 0.106127165
0000f0 c8 0f 32 bd e4 49 0e 3d aa ea 36 3f a1 a8 4d 3f
       -0.04347208 0.034738436 0.7145182 0.8033543
000100 0c 96 60 bd 9c a0 05 3f 20 4f 4b 3f 33 c9 42 3f
       -0.054830596 0.52198195 0.7941761 0.76088256
000110 db ba 52 3f 40 05 49 3f 01 3d a6 3d 1a 98 fc 3c
       0.8231637 0.78523636 0.08117104 0.030834246
000120 99 38 20 3f be 62 82 3d 52 70 52 bd 85 61 8a 3d
       0.6258636 0.0636649 -0.05137665 0.067568816
000130 8e 08 ac bc 9f 45 6c 3d 63 db dd 3c ce 84 38 3d
       -0.021000173 0.057683583 0.02708215 0.045048527
000140 1b c3 4a 3f 9c d9 50 3f 29 85 9f bc 71 ae b0 bb
       0.7920396 0.81582046 -0.019472675 -0.005391889
000150 4b 5e 65 bd 69 4b 58 bd 42 0a 44 3f 91 f3 43 3f
       -0.055998128 -0.05280629 0.7657815 0.7654353
000160 da 21 51 3f 74 d3 42 3f a9 62 36 3f 3b 0f 47 3f
       0.8169228 0.761039 0.71244293 0.77757615
000170 00 e1 2f 3d 73 2d 46 3f 3a fb a4 3d a6 4c 85 3b
       0.042939186 0.774131 0.0805573 0.004067975
000180 ca c7 21 3f 8a dc 30 3f b0 b4 51 3f 77 89 5c 3f
       0.6319548 0.69086516 0.8191633 0.86147255
000190 6c 50 1d 3f 37 a4 43 3f dc 1b 3c 3f 05 f0 99 3d
       0.6145084 0.76422447 0.7348001 0.07516483
0001a0 d2 38 26 3f 9d 4e 90 bd 82 14 3f 3f af ab 0e 3f
       0.6493045 -0.07046244 0.7464067 0.5573072
0001b0 08 fc 40 3f f3 43 3d 3f 69 c9 80 3d 75 a8 13 bf
       0.7538457 0.7393181 0.06288416 -0.5767892
0001c0 9c e7 2e 3f 84 98 91 bd bd 49 14 3d 87 a7 7d 3d
       0.6832216 -0.07109168 0.036203135 0.061927345
0001d0 c6 92 17 3f af 9e 4e 3f 2d 56 88 bd 50 1c 62 bd
       0.59208333 0.8071088 -0.06657062 -0.055202782
0001e0 1e 39 20 3f d2 2a 29 3f eb 48 6f 3f 38 59 70 3d
       0.62587154 0.66080964 0.9347064 0.058678836
0001f0 89 bc 10 3f 94 1a 1d 3f c7 c5 15 3f 35 3b 36 3f
       0.5653768 0.6136868 0.5850491 0.7118409
000200 5f 5c 26 3f f0 bf 06 3f db 2e 83 3d e7 34 0b bd
       0.649847 0.52636623 0.06405421 -0.033986
000210 65 57 4c 3f 99 01 2c 3f 23 0f 5d 3f 71 4a 5c 3f
       0.79820853 0.6718994 0.8635122 0.8605109
000220 67 79 4e 3f 84 12 02 bb a5 a1 0c 3f 82 a9 54 3f
       0.80653995 -0.0019847462 0.5493415 0.8307115
000230 a5 8b f2 3d eb 64 77 3d a6 ca 12 3f f4 02 b1 be
       0.11843041 0.060398977 0.57340467 -0.34572566
000240 be d8 4c 3f 26 6b 52 3f da 06 50 3f c9 67 26 3f
       0.8001822 0.82194746 0.81260455 0.65002114
000250 64 70 5f 3f b1 b4 e0 bd a8 6e 82 bd 2a 73 40 bd
       0.8728087 -0.10971964 -0.06368762 -0.04698483
000260 6e d7 29 3f c9 41 fe 3c e7 70 5f bd 5b 58 54 3f
       0.66344345 0.031037228 -0.05455103 0.8294732
000270 99 e8 33 3f aa e5 17 ba 7f 59 29 3d 65 b3 16 bd
       0.7027679 -0.00057944155 0.041345116 -0.036792178
000280 0e 3c 68 bd ed 5f 81 bd 20 ba da bc 13 50 c2 3d
       -0.056697898 -0.063171245 -0.02670008 0.09487929
000290 8c 06 12 3f 56 58 8d 39 65 06 48 3f 45 2b 0a 3f
       0.5704124 0.0002695943 0.7813476 0.53972274
0002a0 ca 05 a9 bd a9 be 20 3f 38 43 65 bc eb d8 2f 3f
       -0.08253057 0.62790924 -0.013993077 0.68690366
0002b0 b7 0b 45 3f 90 d1 37 3f 85 45 4c 3c 6d a2 35 3f
       0.76971 0.7180414 0.012467747 0.7095097
0002c0 91 20 37 3f c2 6a 39 3f 94 3b 41 3f aa 3f 36 3f
       0.7153407 0.72428524 0.75481534 0.71190894
0002d0 a0 2d 02 3e 26 82 d3 3d 7d 0b db 3c 93 08 54 3f
       0.12712717 0.10327558 0.026738876 0.82825583
0002e0 6e 93 b5 bc a3 ef 14 bd b1 8b 20 3f dc e0 e3 bc
       -0.022165027 -0.036361348 0.6271315 -0.027817182
0002f0 4f 26 37 3f e8 ea 4b 3d de b8 3f 3d 76 f5 5d 3c
       0.7154283 0.04978457 0.046807162 0.013547292
000300 f7 9b 85 3d 06 ba 94 ba 52 05 05 3f a3 ed 38 3f
       0.065238886 -0.0011346943 0.51961243 0.72237605
000310 6a 01 49 3f 95 c6 c7 3d a2 97 9e 3c e1 e8 c2 3d
       0.7851778 0.097546734 0.019359414 0.095170744

linear3.weight f4 [1, 200]
000000 3a 38 d7 c0 86 dd 2f c0 42 72 f0 bf b5 3a c3 c0
       -6.7256136 -2.7478957 -1.8784869 -6.1009164
000010 c8 70 6e c0 ea 47 f0 bf 2a 0a 50 c0 32 ca 75 c0
       -3.7256336 -1.8771946 -3.2506204 -3.840466
000020 eb c5 70 c0 d6 9f e9 bf 5c 1a 44 ba 80 18 ed bf
       -3.76208 -1.8251903 -0.00074807345 -1.8523102
000030 72 1d 63 3b 20 50 81 c0 b9 af 75 c0 94 69 3b 3b
       0.0034655002 -4.041031 -3.8388503 0.0028596865
000040 d9 71 ea bf b2 f8 a5 3b 30 97 ac 3b a3 b5 7f ba
       -1.8315994 0.005065047 0.0052670464 -0.0009754544
000050 76 1d dd 3f 09 44 19 bb 3e 28 c2 c0 d5 7f 7b c0
       1.7274616 -0.00233865 -6.0674124 -3.9296772
000060 c4 69 b4 ba 23 23 55 c0 8a 9a e1 3f d4 01 42 3b
       -0.0013764431 -3.3302696 1.7625287 0.002960314
000070 02 69 c3 c0 89 b2 60 3a 80 51 cf c0 85 48 51 c0
       -6.1065683 0.00085715257 -6.4786987 -3.2700512
000080 23 1b d3 3b a2 ab cf c0 f1 a6 e9 bf 07 07 81 c0
       0.006442444 -6.4897013 -1.8254071 -4.032108
000090 0c 78 f3 bf 85 70 9e c0 f2 5b 7f c0 f8 3b 53 c0
       -1.902101 -4.9512353 -3.989987 -3.3005352
0000a0 5c 42 71 c0 ac e4 64 c0 1a 5a ea ba 64 ac 64 c0
       -3.7696753 -3.576457 -0.0017879636 -3.573022
0000b0 49 c4 20 3b 24 63 36 bb 30 42 61 c0 fb 19 7a c0
       0.0024531058 -0.0027830089 -3.5196648 -3.9078357
0000c0 0f 6a 7b c0 39 1c e1 ba f5 e1 66 c0 74 d7 1e bb
       -3.9283483 -0.0017174549 -3.6075413 -0.0024237307
0000d0 ad 4b 71 c0 ef 7f ee bf db b2 50 c0 37 06 b8 ba
       -3.770244 -1.8632792 -3.2609165 -0.0014039938
0000e0 e5 dc cf ba ec 6a 82 c0 da 4a cd c0 40 3d ef bf
       -0.0015858678 -4.075552 -6.415387 -1.8690567
0000f0 ac ac 88 bb d7 bb b3 3a 45 b3 71 c0 ab 0f 79 c0
       -0.0041709747 0.0013712597 -3.7765667 -3.8915813
000100 9b 90 a3 ba f2 98 d4 c0 82 42 71 c0 98 bd 70 c0
       -0.0012479009 -6.64367 -3.7696843 -3.761572
000110 68 64 75 c0 f9 30 71 c0 bd 5e f0 bf f7 91 e7 bf
       -3.8342533 -3.768614 -1.8778912 -1.809142
000120 31 ea cc c0 a3 0d 1c 3b 19 5a 25 3a 4c e0 e6 bf
       -6.403588 0.002381184 0.0006307676 -1.80372
000130 78 02 84 3b 50 cb 39 3b f9 ed 41 bb 6c 22 f2 bf
       0.0040286146 0.0028349943 -0.0029591306 -1.8916755
000140 3f 57 75 c0 7a 31 56 c0 86 2d d5 ba fb bc af b9
       -3.83345 -3.3467698 -0.0016264177 -0.00033519402
000150 58 93 65 3a 3e 9b b0 bb f0 6c 71 c0 34 2f 6e c0
       0.00087576127 -0.0053896 -3.772274 -3.721631
000160 5e fa 70 c0 be e4 6f c0 cf fe 75 c0 55 0e 77 c0
       -3.7652812 -3.7483363 -3.8436773 -3.8602498
000170 a4 19 eb bf 15 19 7f c0 be 8d ec bf 71 a2 ed bf
       -1.83672 -3.985906 -1.8480756 -1.8565198
000180 fa 0c cf c0 e9 c0 4e c0 67 b0 63 c0 20 25 64 c0
       -6.470334 -3.2305243 -3.5576417 -3.564766
000190 47 33 98 c0 de 70 79 c0 9b a4 73 c0 90 da f2 bf
       -4.7562594 -3.8975139 -3.8069217 -1.897295
0001a0 f9 8a cf c0 b5 56 37 3b 44 18 71 c0 be 28 9b c0
       -6.4857144 0.0027975265 -3.767106 -4.8487234
0001b0 c3 00 71 c0 c3 88 7a c0 cc 75 b9 3b 63 61 fe c0
       -3.7656715 -3.9145973 0.0056597944 -7.949388
0001c0 02 1f 50 c0 82 64 a4 bb a5 0e 82 bb 83 f1 cc ba
       -3.2518926 -0.0050168643 -0.003969031 -0.0015635941
0001d0 a7 b0 e2 3f 62 73 7a c0 43 7d 7a bb 89 8f 12 3b
       1.771016 -3.9132924 -0.0038221634 0.0022363386
0001e0 ca 49 97 c0 d0 46 cd c0 d9 a9 65 c0 85 27 8b b9
       -4.7277575 -6.414894 -3.5884917 -0.0002654159
0001f0 8e 6c cb c0 85 6c cb c0 6f c7 bd c0 e7 14 74 c0
       -6.3570013 -6.356997 -5.930595 -3.8137758
000200 d3 b8 62 c0 cf 7e d3 c0 6d 5e f0 bf a9 06 85 3b
       -3.5425308 -6.6092296 -1.8778816 0.004059632
000210 fc 54 6e c0 bd b6 cf c0 32 50 6a c0 f1 c0 68 c0
       -3.723937 -6.491057 -3.6611447 -3.6367762
000220 c2 ca 72 c0 a7 53 e8 bf af d9 e0 3f 28 7c 65 c0
       -3.7936254 -1.8150529 1.7566432 -3.585703
000230 ae d0 e1 bf a2 37 f1 bf 05 f6 d0 c0 75 a5 81 c0
       -1.7641809 -1.8845103 -6.5300317 -4.0514474
000240 7c d2 72 c0 b9 53 74 c0 31 b1 6d c0 e7 9f 31 c0
       -3.794097 -3.81761 -3.71394 -2.7753847
000250 bd 25 7c c0 25 ab 41 c0 1f 33 96 3a fb d9 d0 ba
       -3.9398034 -3.0260708 0.0011459327 -0.0015934104
000260 97 99 ce c0 f4 f4 e8 ba 17 ee 27 bb 5f 69 68 c0
       -6.4562488 -0.0017773197 -0.002562409 -3.6314313
000270 37 a2 72 c0 3e fe eb bf f8 da f8 3a 36 0a c6 ba
       -3.7911508 -1.8436964 0.0018986156 -0.0015109244
000280 e2 6e 0b 3b e9 47 86 3b bf 0d 69 ba 71 a8 ed bf
       0.0021275808 0.004097928 -0.0008890293 -1.8567029
000290 88 bc cf c0 a8 a1 39 bb 6a 57 5f c0 d4 b7 c3 c0
       -6.491764 -0.0028325114 -3.4897103 -6.11619
0002a0 54 f7 f7 bb c2 97 c1 c0 97 fa 0e bb 55 a4 d0 c0
       -0.0075673256 -6.049775 -0.0021816844 -6.52006
0002b0 77 0e 62 c0 77 68 79 c0 17 c9 c8 38 87 d6 70 c0
       -3.5321329 -3.897001 9.574199e-05 -3.7630937
0002c0 93 94 73 c0 7f cd 74 c0 f4 ad d3 c0 aa 21 4f c0
       -3.8059433 -3.8250425 -6.6149845 -3.2364297
0002d0 a2 71 e8 bf e2 31 e5 bf d2 73 88 3b 49 68 74 c0
       -1.8159678 -1.7905848 0.0041641975 -3.818865
0002e0 22 7d 2a bb b6 a2 65 3a 55 0b e5 3f 76 fb 99 3a
       -0.0026014526 0.00087599026 1.7894083 0.0011747915
0002f0 90 94 6e c0 cb d6 d7 ba dd 33 e1 ba 2f bc e9 bf
       -3.7278175 -0.0016467212 -0.0017181594 -1.8260554
000300 4a 9e f3 bf fb 64 3a bb 3e e3 9f c0 b5 d3 72 c0
       -1.9032681 -0.0028441537 -4.9964895 -3.7941716
000310 a4 fb 6f c0 ab dc fa bf d5 eb 02 ba 41 f9 e8 bf
       -3.749734 -1.9598593 -0.0004994248 -1.8201066
